checkpoints_3layerbidirectional_gru/025.ckpt (torch, 741335 bytes, 26 tensors)

module.lstm.weight_ih_l0 f4 [192, 12]
00000000: 59ec c03e 6236 91be 5f9e 7f3e 6ae7 4dbe
00000010: 69fc 57be 9068 c13e 2452 b23e 6792 8e3e
00000020: a263 433e 9e9b c5bc 681c e2bd 42e2 db3d
00000030: c71c 2f3e 689b a23d 9568 fd3d 4834 4d3d
00000040: 5b2a 60be 450e 9fbd 3d6a 303e 148a a63d
00000050: 5212 0bbf d0f3 4abe a737 33be 3ebb b03e
00000060: e95d 54be 08b8 363e 64a6 a6bb b917 b83e
00000070: 1dac b4be 878a 2ebe dac6 36bd 4722 40bd
00000080: 6501 ccbe 8531 9b3e f151 ca3e baf4 493d
00000090: c816 053e 40f9 aabe aa91 d33e 46c9 473d
000000a0: 2e70 1fbf 6279 3bbe e65c 7cbe 9d57 303e
000000b0: 2187 ddbd 7864 3f3e 8dd3 443b 444a df3d
000000c0: 2ae9 dfbd 5003 edbc 9086 d93e e2a5 ba3e
000000d0: 026b 7c3e 5dda 3bbe 2bca 8fbe fd05 003e
000000e0: ae18 a4be fc33 c53e ce16 abbe 5e2f 943d
000000f0: 4d30 0c3e 04fe a4bd b5fb 813d 2ab9 a53e
00000100: e1b3 c7bd 2548 f2be fe55 a63d ecfd a3bc
00000110: 74a9 cfbd 8e1c 57be fa9e 1a3e 35be e33e
00000120: 7d10 813d e998 12bf 4ad6 a13d 2c7c 333c
00000130: 1986 e43d 7008 a5bd b827 a93e 70dc 833e
00000140: bb54 a73d f692 5abe 9c19 7b3e 9281 4a3e
00000150: a49a 2ebe 95bc 6bbc ac65 fabd 8448 893e
00000160: dae6 f4bd 9c22 28bd b895 cfbe 0e06 a6bd
00000170: 05e3 52bd eaa3 c33d f614 273d 7a05 393e
00000180: c628 453e 194d 05be 5135 a4bd 3c10 bf3d
00000190: 741f 96bd 32fd e83c 187a f23e 9621 473d
000001a0: 9e2d d03d db17 f0bd 1fe1 78be f9d7 aabd
000001b0: 591c bbbd 6e2b 1c3f fb0c 113d 41c5 84be
000001c0: 9ac7 e7be 8dd9 cdbd 3d65 a3be cee8 b8be
000001d0: 091e 7ebe 6727 193e bcbe fa3c 070d 483e
000001e0: 1ab8 38be af00 853e ca3c 293e 8801 ecbe
000001f0: b6f9 99be 063e 673e c87d 2bbd acc0 aebd
00000200: 2480 263e 5604 dc3d ee79 5abe 7cbb 343e
00000210: ae92 96bd 26dd 593e 075e d4be 441e 363d
00000220: 3ec1 7fbe 7917 973d 6dd5 74be 7df3 e23e
00000230: b360 8ebb 4429 6bbe 8a6e 253e 0059 9e3e
00000240: f54b 263e fdf0 15bf dfdf 8ebc 70d3 89bd
00000250: f682 de3e 9821 b43d c42a 1d3e bff8 0abe
00000260: e716 6abd 0191 7bbd 99f3 203d d0ed edbd
00000270: 29f8 d7be 2414 c63d ee59 753d 9661 cb3e
00000280: 66ff 763d c1a9 3b3e 1ed1 08be 0427 943c
00000290: 88c1 833e 36fd ba3e 35e9 2c3e f9dc c53e
000002a0: 3b84 173f a6c1 10bd 7c1c a43d a82b 063b
000002b0: 7e85 133e cfeb bb3c 0d22 d33b 1e1d 8abe
000002c0: 513f 3fbe ae59 bc3d 36b6 033e d754 13bd
000002d0: c3b3 79bc 31c8 803e 5eb2 d4be 0cb7 0abf
000002e0: 58f3 efbe a5e1 fb3d 1b3b 7c3d de58 c5be
000002f0: 18e7 49b9 dcb0 f2be 7de5 dbbd 117d b2bd
00000300: 6225 c53d 87f3 a13e 11ba 7c3d c910 583e
00000310: 1550 e4be 49ba 123e ff86 8e3d 787a 013f
00000320: ba3e 56bd fedf 52bd ff6f 91be 23dd e0be
00000330: 34cd a63e 909a 7dbe 86ba 6b3e d2dc 603d
00000340: da13 febd 12c6 dc3d 05f5 9d3d 5a38 1ebe
00000350: f37e c43d 2377 4dbe 0dc3 95be df0b 98bd
00000360: daf1 34be 4cda 9ebe 81be c33e 5635 9c3d
00000370: be4c 963e e3f3 993e 16d9 813d 9f23 c8bd
00000380: 2cb8 c0be 177d 1c3e 8232 ad3e a6e8 363e
00000390: d535 5d3e 905a 693e 4182 fcbd c45b 6e3d
000003a0: 226c 1dbe 2945 1b3f 74c6 463e 4de4 5abe
000003b0: 5f5d f83e 7f02 d6bd 3db0 55bd b2c5 77be
000003c0: 2167 1ebd f4d6 b63e 8f27 80be 6bf8 783d
000003d0: fa1b 27be 43ef c3bd 035f 66bd 28c7 3f3e
000003e0: 06e1 573e 1bac 77be ee2d 73be 6704 1bbe
000003f0: d74d 603e 2d99 0fbe 74be 0ebe 3b70 babd
0.3768032 -0.28361803 0.24962758 -0.20107809 -0.2109238 0.37775087 0.34828293 0.2784607
0.19080976 -0.024122056 -0.11040574 0.10736515 0.17100821 0.07939798 0.12373463 0.050098687
-0.21891157 -0.077663936 0.17228027 0.08131805 -0.5432483 -0.1981957 -0.17501698 0.34517854
-0.20738949 0.1784364 -0.0050857533 0.359556 -0.35287562 -0.17045031 -0.044623233 -0.04690769
-0.39844814 0.30311218 0.3951564 0.049305655 0.12996972 -0.33393288 0.4132207 0.048775934
-0.6228055 -0.18308023 -0.24644813 0.17220922 -0.108167894 0.1869067 0.003003332 0.10902837
-0.109331444 -0.028932244 0.42485476 0.36454684 0.24650195 -0.18345018 -0.2808393 0.12502284
-0.3205008 0.38516223 -0.33415836 0.07235597 0.136903 -0.08056262 0.063468374 0.3236783
-0.09751106 -0.47320667 0.081218705 -0.02001854 -0.101397425 -0.21006986 0.15099707 0.44481054
0.06301973 -0.5726457 0.079022005 0.010954898 0.111583896 -0.0805825 0.33038116 0.25754118
0.08170458 -0.21345124 0.24521488 0.1977599 -0.17051178 -0.014388223 -0.122264236 0.26813138
-0.11958094 -0.04104863 -0.40543914 -0.081066236 -0.051486034 0.095527485 0.040791474 0.18068495
0.19253835 -0.13017692 -0.08017982 0.09329268 -0.07330218 0.028441045 0.47358775 0.048616014
0.10164951 -0.117233 -0.24304627 -0.08341975 -0.09136266 0.6100377 0.03541277 -0.25931743
-0.4526947 -0.1005126 -0.31913176 -0.36115116 -0.24816145 0.14956437 0.030608527 0.1953622
-0.18038979 0.25977084 0.16527095 -0.46094918 -0.30073327 0.22582254 -0.041868 -0.08532843
0.1625982 0.107430145 -0.21335575 0.17649645 -0.07352196 0.21275768 -0.41477987 0.044462457
-0.2497606 0.07377524 -0.2390954 0.44326392 -0.0043450235 -0.2296496 0.16155449 0.30927277
0.16239913 -0.58570844 -0.017440734 -0.06729782 0.4345929 0.0879547 0.15348345 -0.13571452
-0.057150748 -0.061417583 0.039294813 -0.11617625 -0.4218152 0.0967181 0.059900217 0.3972289
0.06030216 0.18326475 -0.13361022 0.01808501 0.2573359 0.3652131 0.16885836 0.3864515
0.5918614 -0.035340928 0.080132455 0.0020472798 0.14406392 0.02293959 0.006443268 -0.2697534
-0.18676497 0.091967925 0.12862477 -0.03596958 -0.015240612 0.25152734 -0.41542333 -0.5418556
-0.46865344 0.12298898 0.061579805 -0.38544363 -0.00019254943 -0.47400558 -0.10737131 -0.08715261
0.09626271 0.3163111 0.061700884 0.21100153 -0.44592348 0.14328875 0.06959342 0.505775
-0.052305914 -0.051483147 -0.2840576 -0.43918714 0.32578433 -0.24765992 0.23020372 0.05489809
-0.1240613 0.107799664 0.077127494 -0.15451184 0.09594526 -0.20064978 -0.29250374 -0.07424139
-0.17670384 -0.31025922 0.3823128 0.076273605 0.29355425 0.30068883 0.06340234 -0.09772419
-0.37640512 0.15282093 0.33827597 0.17862186 0.21602567 0.22788453 -0.123295315 0.058192983
-0.1537328 0.60652405 0.19411641 -0.21376152 0.48508736 -0.10449695 -0.052170027 -0.24196509
-0.03867257 0.3571087 -0.2503018 0.060783785 -0.16319266 -0.0956712 -0.056242954 0.18728316
0.21081933 -0.24186747 -0.2374799 -0.15138398 0.21904694 -0.14023276 -0.1393984 -0.091034375

module.lstm.weight_hh_l0 f4 [192, 64]
00000000: ab76 e1bd 7d64 58bd dbc1 583e e0f0 8d3e
00000010: 1df5 dc3b 7c2c 803e ab1b 073d e99a c2bb
00000020: 5289 1c3e b789 09bf 606f b93c 6cbc a53e
00000030: 0da5 843e 17a1 dd3d d9e9 d93e 4e3a 41bd
00000040: 481b 393e a732 a53d df91 b13c 120a 12bf
00000050: 8c45 2a3d 4164 203e 2011 983e 525c 853e
00000060: e7a0 b2be 5750 293e bcb0 953e 3edc 02be
00000070: 0fca 2cbe 14fe fabd a590 74be dd5d 75be
00000080: 4e03 a83c 13bd 08bc 8114 e93d 24ea 44bc
00000090: 2e5e 673e cd52 3a3e dcb9 91bd 1e24 cabe
000000a0: ebf6 5cbd ecd5 3fbe 0eb0 e7bd 0f3f c63d
000000b0: e0f6 87be 4d9a 2b3d 2f91 653d 08a9 b3be
000000c0: 1d22 6fbe f306 20bd 2a70 bd3e cbc1 e03c
000000d0: fc84 2abe 72b5 f5bd 7dfc 573d 80b7 a73d
000000e0: b59e 443d cb9d 523e 4567 e93e e4d7 83bd
000000f0: 61b9 fb3d 81aa 6d3d 57de f8bd d2d0 e93d
00000100: 0a1e ffbc 695a a33e 4efd 84be 0367 a13e
00000110: 50f1 65be cf53 db3e eb03 be3d 889f 12be
00000120: f0b1 8e3e d37a e0be a9d4 29be 1373 803d
00000130: 3607 cdbe 2ea9 153e 74a1 c93e 9e43 cdbe
00000140: fcdc 62be 2ecd 41be 2081 a23e 3a2c 803e
00000150: 6a6a 663e 3971 2f3e 5388 8a3d bf64 9d3e
00000160: 14e9 e2be 2e18 2b3e 2d7c 1c3c 2615 3ebe
00000170: 0ebe 373e ea80 233e 1def fc3d 9806 1c3f
00000180: 039e 6d3e 07b1 f8bd de12 893c 7570 5c3e
00000190: b786 12bf bb51 b5bc 898f c73e 0e91 07bd
000001a0: 8ac2 d3bd 5aea 11bc 6f30 2dbf 91f3 a93e
000001b0: 9fd7 47be 1875 ebbd 210c d03e e75a babc
000001c0: 8d8f 5f3e 7fc7 0d3e 06d7 d53e ba3f b5bd
000001d0: 2f18 ebbd d718 343e 6c1b 363e a42f b0be
000001e0: ea79 88be c446 36bc 8bcc dd3d 82c1 70be
000001f0: ebec 99be bfa5 45bf 8916 89be 2175 39be
00000200: c9c3 d53d 1e79 9abe 5ec1 17bf 9fcb 743e
00000210: a62a 6dbb c616 b7bd 0521 c43e ef08 68bc
00000220: c384 343e 0f50 323e 256a b3be 6c19 a4bc
00000230: f6ab 763e 5184 3fbe bc7f 8c3d ca98 893e
00000240: f2b8 5fbe 53fa acbd 4153 4b3e cbcf c33e
00000250: 050a 273e b520 c83d fb27 d0be be73 1b3e
00000260: 855e e5bd f474 9a3e 5ab9 2bbe fe92 19be
00000270: fa2c 17bd 7d16 e8bd cc78 033e 68a3 d2bb
00000280: 1d87 10be 574e 28be 1ced 3abd c373 e8bc
00000290: 99d3 af3e 99ad c6bd 3d80 07be 85ca 433e
000002a0: b024 c83e 3650 823e bb9b e8bd c706 b93d
000002b0: 07fb 973b badc 8e3d 12db 6d3d 4df5 f63e
000002c0: 1146 cf3e 2623 24bd da2f 58bd 666f aebe
000002d0: 24cf 1c3f 3c5a 403e e2b5 fb3e 54ce 01bf
000002e0: f1cd f0bd 8443 813c 5099 e4bc 9757 923d
000002f0: b227 0abe 26da babe 6787 3f3d af65 1bbf
00000300: 3046 24bc a92f 6e3e 72b5 f83d 8351 053e
00000310: e166 8bbe d0d3 aabd 72e4 15bf 5806 0cbd
00000320: 47d9 b6bd e4f1 f6be 43fd df3e a3ae a5be
00000330: be70 d63e 694a 1dbf b887 db3d 3cf6 bebe
00000340: 20f5 0a3e e21b adbe 5b32 94be 45b9 c3be
00000350: daf8 8bbe 27a8 413e 31d1 b23e 524b 15be
00000360: ca06 a93d 4bda 07bd 64e7 323e e3b5 4d3e
00000370: 4ae5 053e 994a 003e 86d2 18be 05cd 193e
00000380: 306b ca3d d716 bfbc 0159 c3bd 74b9 46be
00000390: 0d3c d2bd f621 9a3d 4ec2 363e 91f3 ddbd
000003a0: dbbd 4bbe a35b 8a3d 5b04 723e 0f2c cf3d
000003b0: 2c32 81be 83d3 aa3d 0368 11bd ee5c 06be
000003c0: 07b0 323d 16d3 653e 245a 223e f934 7d3e
000003d0: 4d38 ec3d eedc 89be 59af 2abe 0a98 443e
000003e0: 4d98 433d fc2a 883d 6258 97bd deef 89be
000003f0: 807c 523c a094 1b3e 298b 51bc 5238 423d
-0.11008962 -0.052830208 0.211677 0.27722836 0.006743087 0.2503394 0.03298537 -0.005938877
0.15286759 -0.5372576 0.022636116 0.32370317 0.25907174 0.10821741 0.42561224 -0.047174744
0.18076813 0.08066302 0.021676002 -0.57046616 0.04157023 0.15663244 0.29700565 0.26046997
-0.34888384 0.16534553 0.292364 -0.12779328 -0.16873954 -0.12255493 -0.23883303 -0.23961587
0.020509388 -0.00834586 0.11380864 -0.012018714 0.2259452 0.18195648 -0.07115528 -0.3948068
-0.053946417 -0.18733948 -0.11312877 0.09679996 -0.26555538 0.0418952 0.05604666 -0.35089898
-0.23352857 -0.039069127 0.36999637 0.027436158 -0.16652292 -0.119974986 0.052731026 0.08189297
0.048002917 0.20568006 0.455866 -0.06437662 0.122912176 0.058023933 -0.12151783 0.114167824
-0.031142253 0.31904915 -0.25974506 0.31523904 -0.22455335 0.42837378 0.09278091 -0.14318669
0.2787013 -0.43843707 -0.1658503 0.06271949 -0.40044564 0.14615318 0.3938099 -0.4009065
-0.22154611 -0.18925926 0.3173914 0.25033742 0.22501531 0.17133035 0.06764283 0.30740926
-0.4431845 0.16708443 0.00955109 -0.18562755 0.17943594 0.15967146 0.12350295 0.6094756
0.23204808 -0.1214314 0.01673263 0.21527274 -0.5723681 -0.022133699 0.38976696 -0.03309732
-0.1033984 -0.008905971 -0.6765203 0.3319364 -0.19515847 -0.11496943 0.40634254 -0.022748424
0.21832104 0.13845633 0.41765612 -0.088500455 -0.11479222 0.175876 0.17783898 -0.34411347
-0.26655513 -0.01112527 0.10830029 -0.23511317 -0.30063567 -0.77206033 -0.26775005 -0.18111087
0.10437734 -0.3017053 -0.5927943 0.239058 -0.003618875 -0.089398906 0.38306442 -0.014162286
0.1762877 0.17413352 -0.3504192 -0.020031653 0.24089035 -0.18702818 0.06860301 0.2687438
-0.21847895 -0.08446183 0.19855978 0.3824447 0.16312416 0.09771863 -0.40655503 0.15180871
-0.11199669 0.30167353 -0.16769925 -0.1499748 -0.036908127 -0.11332414 0.12839049 -0.006428171
-0.14114042 -0.16436134 -0.04563628 -0.028375512 0.34341124 -0.0970108 -0.13232513 0.19120224
0.3909049 0.2545182 -0.11357828 0.09034496 0.004638079 0.06975694 0.05807025 0.48234025
0.40483144 -0.040072583 -0.05278001 -0.34069365 0.6125357 0.18784422 0.49162203 -0.50705457
-0.1175803 0.015779264 -0.027905136 0.07145613 -0.13491705 -0.3649456 0.04675999 -0.6070203
-0.0100265 0.23260368 0.12143983 0.13019376 -0.27226928 -0.08341181 -0.58551705 -0.034185737
-0.08928161 -0.48231423 0.4374791 -0.323598 0.4188289 -0.61441666 0.10719246 -0.37297237
0.1357007 -0.33810335 -0.28944668 -0.38227287 -0.27338296 0.18911801 0.34925225 -0.14579514
0.08253248 -0.033167165 0.17471081 0.20088916 0.13075748 0.12528457 -0.14924058 0.15019615
0.09883726 -0.02332632 -0.095384605 -0.19406682 -0.1026536 0.07526009 0.17847559 -0.10837472
-0.19896643 0.067557596 0.23634474 0.101158254 -0.2523359 0.08341124 -0.035499584 -0.13121387
0.043624904 0.22443804 0.15854698 0.24727239 0.11534176 -0.26926368 -0.16668452 0.19198623
0.047752667 0.066488236 -0.073899046 -0.26940817 0.012847066 0.15193415 -0.012789526 0.047416992

module.lstm.bias_ih_l0 f4 [192]
00000000: eed4 04bd b75e 853e 0083 7c3e 7ce6 193d
00000010: 99ff 9e3e 87aa 873e bfb1 01bf 0e9e 133e
00000020: 77b8 783b fa16 313f e997 993e 80c2 b13d
00000030: 4431 23bd 312f 27bd 86dc 613e 900d 963e
00000040: 972a 93be 9a4b 4d3e 9219 503e 9cd1 373e
00000050: 2dcf a5be 85c8 3d3e 90bd 833e cfec ae3e
00000060: 3a15 363e fb9f b73e 71a8 813e 95ff 2bbc
00000070: d84e 03be d8f1 d43e 8ab0 16bf 94fb 113e
00000080: db5c da3d 5a82 9bbd 3e42 293e fa12 ddbc
00000090: a319 453e 2c70 023f fdec 3b3f 49ac 063f
000000a0: ab0a 493e 20a4 993d 4ff7 42bc cdab d9be
000000b0: 7c57 863d e5f9 c63e f419 0a3e 5473 a53e
000000c0: b435 003f fddd 883e c234 e23d cddb 543d
000000d0: bfe9 133f 294a d4be 7d32 303f 2e0b 563e
000000e0: 7e5f f53e a280 823d 5e72 92bd 091d 6b3c
000000f0: 81d8 4e3d 61b4 2a3f aa95 90be b039 e3bc
00000100: cb4e e4bd 53e8 963e 8fe2 9c3d 3153 b23b
00000110: 9afc 693c e92b 573e 947f 61be 1c2f 083f
00000120: 5267 ea3e 68a4 303e 01e4 203d 2b87 c7be
00000130: dada 78bd b7c8 89bd 7fbd b7be 13fa 1fbf
00000140: b66d c03d 8bfc f93e 41ce e23e 08d8 f0be
00000150: 7c72 ae3e 6590 f03e 73a3 6b3e 30fa 82bd
00000160: edd0 0abf f005 19bf c3e4 3bbe 2578 1cbf
00000170: 4895 21bf 9a4a bdbd 4b28 c63e 604d 17be
00000180: 9e7a 053f 0d70 113f 58a2 a03e d298 92be
00000190: 8139 ffbe 0be4 0ebe e71d 3abe f2dc 533c
000001a0: ddee 78be b014 b5be 46e2 233f 9d02 3abe
000001b0: efa6 0a3f bf5c 083d 4620 9a3d 9b77 25bf
000001c0: 3812 98bd 8ca6 3c3f a5b1 963e a5bd ebbe
000001d0: a7f6 32bf 1eb1 423f ea63 36be 5cf8 fabe
000001e0: 9286 783e 13ac 7b3e 19ab a13e a073 163f
000001f0: bce9 cc3e c897 32bf 2b14 cd3e 8cb3 b63e
00000200: f048 043f 7f4c 08bf 3515 f63e 964e 573f
00000210: 016e a03e ffc4 343f 87f6 e03c 0459 a7be
00000220: 1e3e 173f eebb 12be bc6e fa3e 0801 6dbf
00000230: 0534 0f3f b6f8 883e ed6b 8e3f 77a4 9abe
00000240: 646d cbbe 7397 1dbf 4695 903f 43e4 0bbf
00000250: 4076 f8bd c7df dd3e 765e 9b3e cca4 293f
00000260: be6c 3d3e 2034 2bbd 55c8 6fbf 478f 62bf
00000270: 394e b7be 3381 34bf 9466 d73e f598 a13e
00000280: d5dd 013f b4ba 30bf f9a6 153e 8feb a2be
00000290: 555d 143f f139 6f3f c87c a83f 21fd 22bf
000002a0: d92b 153f c94f 1fbe 5c10 abbe 60c8 3ebe
000002b0: c804 24bf cbeb 303f e55f 363f bc33 a4bd
000002c0: 029b 663f 61d5 07be 57fb 6e3f 1121 51be
000002d0: 8b91 c0be 9eba d53e 9cb3 e73f dc78 823e
000002e0: ce1f 0d3f ad73 823f 828c c63e 1f99 35bf
000002f0: d2d7 00bf 6d53 043f c170 50bf 1bd3 bbbe
-0.032429628 0.26048824 0.24659348 0.037573323 0.3105438 0.2649729 -0.50661844 0.14415762
0.0037951746 0.69175684 0.2999871 0.08679676 -0.039841905 -0.04081649 0.2205678 0.29307222
-0.2874343 0.20048371 0.20322254 0.17951053 -0.32384625 0.18533523 0.25730562 0.34165046
0.17781535 0.35864243 0.25323823 -0.010497947 -0.12823045 0.41590762 -0.5886313 0.14256126
0.10662242 -0.07593222 0.16529176 -0.026986588 0.19248061 0.5095241 0.7340849 0.52606636
0.19632976 0.075020075 -0.011899783 -0.42513886 0.06559655 0.3886253 0.13486463 0.3231455
0.50081944 0.26731864 0.11045219 0.05196743 0.57778543 -0.4146283 0.6882704 0.20902702
0.47924417 0.06372191 -0.0715072 0.014350184 0.050499443 0.66681486 -0.28239185 -0.027737468
-0.11147841 0.29474124 0.076604 0.005442046 0.014281416 0.21012844 -0.22021323 0.53196883
0.45781952 0.17250216 0.03927994 -0.38970312 -0.060755588 -0.067277364 -0.35886762 -0.6249096
0.09395926 0.48825487 0.44297984 -0.4703982 0.3407172 0.46985164 0.2301157 -0.06395376
-0.54225045 -0.59774685 -0.18348984 -0.61120826 -0.6311841 -0.09242745 0.38702616 -0.1477561
0.52140224 0.568116 0.31373858 -0.28632218 -0.4984856 -0.13954179 -0.1817547 0.012931095
-0.24309869 -0.35367346 0.6401714 -0.1816506 0.5416097 0.033291575 0.07525687 -0.6463563
-0.0742535 0.7369163 0.29432407 -0.46043125 -0.6990761 0.7605151 -0.17811552 -0.49017608
0.24270085 0.2457736 0.3157585 0.5877018 0.40022075 -0.6976285 0.4005445 0.35683858
0.51673794 -0.53241724 0.48063055 0.8410429 0.31333926 0.7061309 0.027461303 -0.326851
0.5907916 -0.14329502 0.4891261 -0.925797 0.5593875 0.2675225 1.1126686 -0.30203602
-0.39731896 -0.6155922 1.1295555 -0.54645175 -0.121319294 0.4333479 0.30345505 0.66267085
0.18498513 -0.041797757 -0.9366506 -0.88499874 -0.35801867 -0.7050964 0.42070448 0.3156201
0.50729114 -0.69034886 0.14614476 -0.31820342 0.57954913 0.93447787 1.316308 -0.63667494
0.5827003 -0.1555778 -0.3341092 -0.18631124 -0.64069796 0.6910979 0.71240073 -0.0801768
0.90080273 -0.13264991 0.93352264 -0.2042277 -0.3761104 0.4174394 1.8101687 0.25482833
0.55126655 1.0191551 0.38779074 -0.7093677 -0.50329316 0.516898 -0.8142205 -0.36684498

module.lstm.bias_hh_l0 f4 [192]
00000000: f29c 98bd 5e30 8b3e 24da 403e 9be0 87bd
00000010: 46b5 823e 04e2 df3e d463 aabe fcfb 623d
00000020: d980 723d 45d6 393f c45b 9b3e 8e95 edbb
00000030: 9a4e d9bc 6f19 923d 7d5e 263d 6b1d b33e
00000040: ecf5 0abe d8c8 ae3e 1549 b73e 62b9 5a3e
00000050: 67e9 afbe b947 493e 4e09 b63e 025c a23e
00000060: c4ad 24bc 04f9 883e 47ca d43e 5008 ebbd
00000070: 3c9d f1bd da45 c73e 9a76 eabe 52a2 2a3e
00000080: 1aa0 0b3e cc7e 503d eba8 3e3e a50d e73d
00000090: a9a9 f83d 7be8 ca3e 0a55 213f 2df8 da3e
000000a0: 561c 3b3e 1178 173d 4287 d83b 64bc 94be
000000b0: 0a4d cc3d bb9a f23e 1050 e7bc 7185 c93e
000000c0: 608b 303f 9235 883e 5ac5 163e a0ff cfbd
000000d0: 67d2 283f 2cd9 b3be aeff 3c3f 566a 9d3e
000000e0: 3883 de3e 5b31 203e ad3d 5ebd 0df4 4c3d
000000f0: c8a2 e53c e18c 023f aec6 dfbd 6468 edbd
00000100: 56f4 3cbd e545 a43e 35d2 0abd dd6c 46be
00000110: e538 6ebd 0a8f 893e 905f b6be c598 403f
00000120: 5b91 f73e a2c8 eb3c 0463 273c f282 abbe
00000130: 3b1e d5bd e7cb 02be 8ced 9cbe 579a 21bf
00000140: cf09 963e 9b68 013f 3aca cb3e a48c dbbe
00000150: 3cd8 da3e a98f 053f 98aa 4a3d e672 2bbd
00000160: c1e7 2ebf 7b0b 1dbf 2427 47be 6361 28bf
00000170: c06d 51bf 0ce7 133d b079 ad3e d3c9 94be
00000180: d874 093f 7f0b 163f 5bb5 723e 9c6a 5abe
00000190: 555e d4be 809d 3cbe f3bb b0be 2e76 d23d
000001a0: 4a44 d2be 14c8 98be 50de 2a3f 67ed 86be
000001b0: 15c9 013f 6eea e63d d727 233e e204 60bf
000001c0: b983 15be a9e6 663f 1dd4 b43d 9265 dfbe
000001d0: ac77 f8be 90c0 253f 9f30 97be d9ad eebe
000001e0: 9a34 cf3e 5c00 b83e 1b83 c53e 5157 e93e
000001f0: 0a0d 033f 6b7d 12bf b9f7 d73e 338d 8f3e
00000200: 5554 e13a 7455 cfbe b700 5e3e ef56 2f3f
00000210: 64c7 8cbc ad53 183f d3dd 0fbe 5429 363e
00000220: df64 033f 665f 96bd 4e88 bc3e 65ca f4be
00000230: 2fd8 b83e 3e42 533e b165 313f 2751 e0be
00000240: d08d c4be cc36 ebbe de72 3f3f 6ed0 cdbe
00000250: 0a47 a1bd 4b1f 723e 3f6a 203f af56 273f
00000260: 7477 ee3d 705c 473e 6e72 8bbf 0545 66bf
00000270: 92b6 25be 7d8b 2ebf ea3e 293e 365f b03e
00000280: 5e3c db3e 382d 43bf 8e4c 463e d58e 2abf
00000290: 1018 103f aa10 2f3f 6c1f 883f 11db 08bf
000002a0: 8b02 2d3f 1270 02bf c1ba 10bf fc1f f4bd
000002b0: 437a f2be 50a6 283f e38b c03e bde6 1abd
000002c0: 671a 863f 9c51 bebd 064b af3e cea9 21be
000002d0: d234 47be 4a60 9b3e 9650 a63f a217 ff3e
000002e0: ea64 f23e af8c 243f 11ea ee3e ae2d 91be
000002f0: 33fe aebe 3a9e 803e 12cb b5be 0885 7abe
-0.0745181 0.2718534 0.18833214 -0.06634637 0.25528926 0.43727124 -0.33279288 0.055416092
0.05920491 0.72592574 0.3034345 -0.0072504943 -0.026526738 0.07133757 0.040617455 0.34983382
-0.13570374 0.34137607 0.35797945 0.2135978 -0.3435776 0.19656266 0.35553974 0.3171082
-0.010051195 0.26752484 0.41560575 -0.11476195 -0.11797568 0.3892048 -0.4579361 0.16663483
0.13635293 0.050902173 0.18619125 0.11281899 0.12141735 0.39630494 0.63020384 0.42767468
0.18272528 0.03697974 0.006607921 -0.2904998 0.099756315 0.47383675 -0.028236419 0.3935962
0.6896267 0.2660337 0.14723721 -0.101561785 0.6594605 -0.35126626 0.73827636 0.3074519
0.43459487 0.15643828 -0.054258037 0.050037432 0.028031722 0.50996214 -0.10926567 -0.115921766
-0.046131454 0.32084575 -0.033891875 -0.19377466 -0.058159728 0.26866943 -0.35619783 0.7523311
0.48353085 0.028782193 0.010216478 -0.3349834 -0.10406157 -0.12773095 -0.30649984 -0.6312613
0.29304358 0.5055024 0.39802724 -0.42880738 0.427431 0.52172333 0.049479097 -0.041857623
-0.6832238 -0.6134564 -0.19448525 -0.657736 -0.8180809 0.036109015 0.33881903 -0.2906023
0.53693914 0.5861129 0.23701994 -0.21329731 -0.4147822 -0.18419456 -0.34518394 0.10276447
-0.41067725 -0.29840147 0.6674547 -0.26353 0.5069745 0.11275183 0.15933166 -0.8750745
-0.1460103 0.9019571 0.0882952 -0.4363218 -0.48528802 0.6474695 -0.29529282 -0.4661701
0.4046982 0.35937774 0.38576588 0.4557443 0.5119177 -0.5722262 0.42181185 0.28037414
0.0017191271 -0.40494883 0.2167996 0.68492025 -0.01718492 0.5950268 -0.14049463 0.17789203
0.5132579 -0.073424146 0.36822742 -0.47810665 0.36102435 0.20630738 0.69295794 -0.43811914
-0.38389444 -0.45940244 0.7478465 -0.40198082 -0.07874878 0.2364475 0.6266212 0.65366644
0.116438776 0.19468856 -1.0894296 -0.89949065 -0.16182926 -0.6818159 0.16527906 0.3444764
0.42819494 -0.76240873 0.19365141 -0.66624194 0.56286716 0.683848 1.0634589 -0.5345927
0.67582005 -0.50952256 -0.56534964 -0.11920163 -0.47358903 0.6587877 0.37606725 -0.037817705
1.0476807 -0.092929095 0.34236926 -0.15787432 -0.19453743 0.303469 1.2993343 0.49822718
0.47342616 0.64277166 0.46662953 -0.28355163 -0.34178314 0.25120717 -0.35506493 -0.2446481

module.lstm.weight_ih_l0_reverse f4 [192, 12]
00000000: 22fd 133e 772e 5fbe 2afb 9c3d f60c c33d
00000010: a931 d7be c668 12bf 2e18 32be 66ab 14be
00000020: 778d 5cbd cca5 a5be de0c 423e bc2d 42be
00000030: e1a2 393d 9f5b 71be 9289 b13e e7c0 be3d
00000040: de87 93be 2e25 07bf ec87 25be 7a70 87bd
00000050: a4f6 78be 0d5e 02bf fc1f 17b8 f7e1 b03e
00000060: 14df 18be 496f 493e e808 1e3e 0659 7e3e
00000070: 314b b3bd 7eac 463e ca19 4a3d f43e 32be
00000080: da50 52be dd00 03bf ceca f43c e58e 2d3e
00000090: 6e32 6cbd f8ab b93e 1724 87bc b397 8b3e
000000a0: 6020 bbbe 9ecf 173e d03b 0cbe 4bd7 0b3e
000000b0: 3248 21be 63c8 a63d a443 95be 517d 5b3d
000000c0: ca4f 1c3e 101c 95be 03e0 4a3e 5e59 a53d
000000d0: 3168 00bf 88e2 3dbe 9889 8abc f50c a13d
000000e0: b305 3b3e 562c 0bbf bee4 97be 225e 37be
000000f0: 5b8e 81bd 4d54 dbbe 3893 4bbd 69cd 89bd
00000100: 6e61 f5bd 3593 99be dcc9 90be 1ce5 80be
00000110: 66ef 30bd b946 ea3d d1e0 8dbe c610 67be
00000120: b7d8 2dbe 6597 2cbe c87e ddbe bd21 d93e
00000130: e3c9 8abe 86ea 84be 0ed3 39be a50b d13e
00000140: eea2 c23c 9592 f13a 2b3a 2dbe a933 053e
00000150: 6c6d cd3d a219 a7bd 83c1 e03e 86a4 6cbd
00000160: cd14 403d cd02 86be db6d 49bf 0a59 c3be
00000170: 474b 85be a150 ccbe c9ab 34bd 7740 d0bd
00000180: 7cde ccbd 0b64 8a3e 7cf9 a2be 9b71 7c3d
00000190: 3b26 69bd cacb 5ebe 9a08 d6bd 6778 d43c
000001a0: e54a 6dbe 5233 5b3e aaf5 6fbe b527 bfbd
000001b0: 94cf 703e 9bac 283e 96d9 893d c46b 54bd
000001c0: cd2f f8bc 0229 bc3d 922f db3d e15c e8bd
000001d0: 3dd8 c53e 17bb 173e e29a 023f 946e 4f3e
000001e0: 1d18 90be 17e4 873e 6e77 32be 25f8 7bbd
000001f0: 10b3 75be 2d66 413e 61ec 963d a6b8 793e
00000200: 716c 823e e439 983e 62f7 6e3e 9fc5 44bd
00000210: b6fe 2c3e 2428 60be 046a 95be 4c41 e0be
00000220: 8bfb 6ebd 8b65 713d 6311 273e c5ac 41be
00000230: a20b 34be ecb7 cb3e b6f2 353e 378d 4cbe
00000240: 3e74 7cbd 7a99 433e da3c 30bd a122 eb3e
00000250: 733b 24bd 9d65 0a3e e676 41bd 9383 7a3c
00000260: 0cde d9be 63e6 c43d 487c d5be 087d 0e3e
00000270: f8e4 00bf f6a3 03be f4e8 9fbd 733b 3cbe
00000280: bc0b 2cbc 9008 f23c 8839 4cbe 25f1 b8be
00000290: 3439 a1be 9c27 a7be f757 f3bd f5fe 5fbe
000002a0: ea0e 6b3e 2fd5 833e 2564 8f3e 2256 acbe
000002b0: 2bfd ff3d 1d2b 6f3e 1838 e13d 827b 393e
000002c0: d431 12be d67f 6e3d bde8 693d fdf5 a23e
000002d0: 4e7a 03be 0126 bd3e 7834 3a3e 5ef3 bfbd
000002e0: cacd 223d 87e7 0abe 323b 19bf 3a51 65bd
000002f0: a9d3 a4bd eb81 93bd 66d5 8dbe d7ea 303e
00000300: dcec 9cbd a2ee 8b3e 6ae8 eb3d c7f4 d43d
00000310: 08e2 c7be 0c47 b53e 1223 4f3c 64da 5c3d
00000320: 322d c93e 70dc 503f d8bc f93d 4dde 073e
00000330: 14a0 3e3e e5d9 72be 70c9 933d 3b6e a13d
00000340: 392d 7d3e 1b02 18be 408c d53e 15ee 2a3f
00000350: 6c64 343d 0ea1 ccbe bb01 9dbe 21da 773b
00000360: 3e51 77be b144 2abe 37b9 c83e cd83 81be
00000370: 067d 46be 32a1 4abe 7b3f c5be 4848 6e3e
00000380: a840 a1bd 65d6 2a3e 7aa2 6bbd c9c4 28be
00000390: 0b72 16be 3775 2e3e 64a7 80be a173 17be
000003a0: c7a8 aabe 33af 7abc 2bb7 e6be d049 c9bd
000003b0: a670 8bbd 890a b4be 0cb6 9d3c 1907 7a3d
000003c0: 7977 a1be 583c be3e 25d6 0fbe 90f5 70be
000003d0: 817e 8bbc 41be 2dbd 6130 32bd 9033 38bc
000003e0: 93de 8f3c 9b62 27be b67f 843e 341f a53e
000003f0: c4fc 71be 723b b9be bfe8 f8bd 1947 02be
0.14452031 -0.21795069 0.07665093 0.095239565 -0.42030075 -0.5719112 -0.17392036 -0.14518508
-0.05384585 -0.32353055 0.18950221 -0.18962759 0.04532135 -0.23570107 0.3467527 0.09314137
-0.28814596 -0.52791107 -0.16165131 -0.0661325 -0.24312836 -0.5092476 -3.6030993e-05 0.34547397
-0.14928848 0.19671358 0.15433085 0.24838647 -0.08754576 0.19401738 0.049341 -0.17406827
-0.20538655 -0.5117319 0.029881861 0.16949041 -0.05766528 0.36264014 -0.016496701 0.27264175
-0.36548138 0.14825293 -0.13694692 0.13656346 -0.15750197 0.081436895 -0.29153168 0.053586308
0.15264812 -0.29122972 0.19812016 0.08073686 -0.50158983 -0.18543446 -0.016911313 0.078637995
0.18263893 -0.54364526 -0.29666704 -0.17907003 -0.0632598 -0.42837754 -0.049700946 -0.06728632
-0.11981474 -0.29995123 -0.28279006 -0.25174797 -0.04319706 0.114392705 -0.27710584 -0.22564992
-0.16977201 -0.16854627 -0.4326079 0.42408553 -0.27107152 -0.25960177 -0.18146917 0.40829197
0.023759332 0.0018430526 -0.1691672 0.13007988 0.10030636 -0.08159186 0.43897638 -0.05777409
0.046894837 -0.26174012 -0.7868325 -0.3815387 -0.26033995 -0.39905265 -0.04410914 -0.10168546
-0.10003373 0.27029452 -0.31830966 0.06163178 -0.056921225 -0.21757427 -0.10450859 0.025936319
-0.23173101 0.21406296 -0.23433557 -0.093337454 0.23516685 0.16472094 0.06730954 -0.051860586
-0.03029623 0.09187509 0.10702433 -0.1134584 0.3864154 0.14817463 0.5101758 0.20257026
-0.28143397 0.26541206 -0.17428371 -0.061515946 -0.23994088 0.18886633 0.073693044 0.24386844
0.2547336 0.29731667 0.23336557 -0.04804003 0.1689404 -0.21890312 -0.29182446 -0.43799818
-0.05834536 0.05893473 0.16315226 -0.18913563 -0.17582563 0.3978876 0.17768368 -0.19975744
-0.061634295 0.19101515 -0.043026783 0.45924857 -0.040095758 0.13515325 -0.04723253 0.015290159
-0.4255222 0.09614255 -0.41696382 0.13914883 -0.5034938 -0.12855515 -0.07808104 -0.18382053
-0.010500845 0.029545099 -0.19943821 -0.3612148 -0.31488955 -0.32647407 -0.11882012 -0.21874602
0.22954908 0.25748584 0.28006092 -0.33659464 0.1249946 0.2335629 0.10997027 0.1811352
-0.1427682 0.058227383 0.057106722 0.318283 -0.12839624 0.36943057 0.18184078 -0.093725905
0.039747037 -0.13564883 -0.5985595 -0.055985667 -0.080481835 -0.07202514 -0.27701873 0.17277084
-0.07662365 0.273305 0.11518939 0.1039825 -0.39039636 0.35405767 0.012642639 0.05391921
0.39292294 0.8158636 0.12194222 0.13268395 0.18615752 -0.23715933 0.072161555 0.07882353
0.24724282 -0.14844553 0.41708565 0.66769534 0.044041082 -0.39966625 -0.30665383 0.0037819224
-0.24152085 -0.16627766 0.39203808 -0.2529587 -0.1938363 -0.19788054 -0.38524994 0.2326976
-0.0787366 0.16683348 -0.057527997 -0.16481318 -0.14691941 0.17036901 -0.2512771 -0.14790203
-0.33331892 -0.01530056 -0.4506162 -0.09828532 -0.06808595 -0.35164288 0.019251846 0.061041925
-0.31536463 0.37155414 -0.14046533 -0.23531175 -0.017028095 -0.04241777 -0.04350317 -0.011242762
0.017562186 -0.16346209 0.25878686 0.3225037 -0.23631579 -0.36178166 -0.12153768 -0.12722434

module.lstm.weight_hh_l0_reverse f4 [192, 64]
00000000: 46f3 47bd 9219 523e 8d16 493e c8d7 cfbd
00000010: 4e84 b93e 5423 eebb 03b2 1c3f 10d8 5b3e
00000020: 7eed 0a3d c815 fcbe 49d2 09be 7f06 57be
00000030: c836 8cbd 5d1a 533d 58ed 1fbd b80f 8e3e
00000040: dea8 1bbf b06e 5d3e f09c ca3b c12c 2b3e
00000050: 7b3c bfbe 1f27 abbe effc a4be 36d5 913e
00000060: b3fb d93d 167d 5cbd 81ad 7e3e 1e21 4bbe
00000070: fe09 bcbe 1396 97be 5aab 9fbe b4da 0f3d
00000080: 67cc c13d e884 c73e 78c2 67be f756 603d
00000090: ec1d 513f 4e7e 48bf 858d b9bd 6d6e 8dbe
000000a0: 166c c0bd cbca 03bf 50ee 63bd d253 a63d
000000b0: a597 b3be 4e9e 153f 1e81 243f 95ce debe
000000c0: 85cf 06bf dd25 e43c edf4 f03d 604f 343e
000000d0: d4ed 913e 2101 92bd e1ac 513f c131 9bbe
000000e0: 8231 a7bd 630b d9bd 26e2 033f 50d6 733e
000000f0: 3c0c 043e 0851 abbe ed1c cfbd f2f7 363d
00000100: 0aaa c4bd 0aff 61be 7ea5 073e eb5c 87bd
00000110: be82 033e 74a2 31be 285f 383e bc3d 383e
00000120: be79 183f fe92 fdbd aa53 9b3e ac44 46be
00000130: f631 853e 92ce 803e 258c afbe 8217 9dbc
00000140: 4390 14be 7f6f 953e 0d5d f1bd 5dbe 4bbd
00000150: fc59 93bd c5ad b6bd 3fbd 0abc 9ea4 973e
00000160: 869e 423d 0c32 543d d0b3 813e d000 843e
00000170: 92d6 95be 050b 903e 03fb 5ebe d041 cd3e
00000180: 04e7 ed3e 828f f33e 418a a73e 64c7 97b6
00000190: 31bd ca3d 9b27 40bf e44c b23e 9e1b 883d
000001a0: 4c76 5dbe 9540 18be 4095 6ebe 436b a93e
000001b0: 3f6b 093e 590f 00be 6bb3 353e 2c30 3cba
000001c0: db66 42be 800c d33e 00b1 8cbd f716 f73e
000001d0: bb2f c93d 3a06 773e 660d 093f 5e71 b2bc
000001e0: 088f fa3c f359 8dbd 5d87 a1be 9029 22bd
000001f0: 619d 623e 5d3a 69be 35c7 fc3a 2388 d23d
00000200: c17e 37be c735 0b3f 93a2 10bf 4107 d2be
00000210: 8e8b f6be 1d36 eabe 3e35 ddbe dbba 27be
00000220: 42ee a23d 2afa 483e 3e16 4bbc ca12 483d
00000230: 777f e8be a27d 6bbe f7a3 e93d 4719 2d3d
00000240: 66f9 f43c e322 9ebe 97d8 aab9 6cdb 40bd
00000250: 8cb2 a13e 421a 68bc 0246 0b3e ae45 ccbc
00000260: ac6e 303e 649f 14be d945 1c3f bc9e 213f
00000270: 7861 7a3e 0240 eabd 5df8 dfbe 4364 3c3e
00000280: 2169 ac3e 3fe4 4e3d badc da3e 4e00 853e
00000290: f0a8 b33e 6d03 a73e a4f0 9b3e 221d 1e3f
000002a0: 2160 60be 2bd1 99bc 6e36 4ebe 8a78 ff3e
000002b0: 1d24 a2be 335e 973e 3ae4 b0bd 0d1e 0e3f
000002c0: 7ea0 3fbb 206b 0cbf 615a 93be 0918 a93e
000002d0: 3427 cfbe ef5b c23c 6401 d13d 61c1 dabe
000002e0: 0235 35be de32 0cbf e6c7 13bf 16e7 11be
000002f0: 94bc b13d 32ce cdbd fedc 79bd 9401 b23e
00000300: e2d4 a6be d58c ef3d ee8b 3c3c ebb7 47be
00000310: ea89 ee3d d040 69bf e804 cc3d 2038 ffbd
00000320: dd24 023f 20da 01bf c674 483e 037e 433d
00000330: 7d64 e3be be12 13be 68a3 ebbd 92c6 5d3d
00000340: 8513 83bc 1e4d a0bd 8984 e6be b10f 1a3f
00000350: c114 3f3f 48b6 aabe c56f 68be 1194 c8bd
00000360: daa5 00be aa2a 463e c05c 0d3f d6e0 263d
00000370: 50e0 a2bd 6548 b73d e25e a3be c633 513e
00000380: 193c d8be a850 37be 195f 033e bd1d 15bf
00000390: 4600 933e 5afb 23bd f045 0f3f 1e8d f2bc
000003a0: ac52 383d b412 91be d92d 073e 75df 16be
000003b0: b6c6 0d3f 64c4 2abc ce19 27bd ba09 253f
000003c0: efd8 cdbe 9a1a 9bbe f62d d33d a0a1 393d
000003d0: a7b5 91bd fe55 03bd 32cb 013d 69cf b3be
000003e0: f8ab 2fbf 3c90 89be 0445 45bd 2f38 f43d
000003f0: 05b5 4abe 7bcc 6ebe db20 67be e9b6 113f
-0.048815988 0.20517567 0.19637509 -0.10148579 0.36233753 -0.007267395 0.61209124 0.2146914
0.033917896 -0.49235368 -0.13459124 -0.20998572 -0.06846386 0.051538814 -0.039044708 0.27746367
-0.60804546 0.21624255 0.006183259 0.16716291 -0.3735083 -0.33428285 -0.32224223 0.2848298
0.10643711 -0.05383023 0.24870874 -0.19836852 -0.36726373 -0.29606685 -0.31185418 0.03512068
0.09462815 0.38968587 -0.22632778 0.054770436 0.8168628 -0.78317726 -0.09060196 -0.2762331
-0.09395616 -0.5148131 -0.055647194 0.08121456 -0.35076633 0.5844468 0.6425952 -0.43516985
-0.526604 0.027850086 0.11765466 0.17608404 0.2850176 -0.071291216 0.8190442 -0.30311397
-0.0816374 -0.10597875 0.5151695 0.23812222 0.12895292 -0.3346026 -0.10112939 0.044670053
-0.09602745 -0.22069946 0.13246724 -0.066095196 0.12842843 -0.17347127 0.18005049 0.179923
0.59560764 -0.12381552 0.30337268 -0.19362134 0.2601468 0.251576 -0.3428661 -0.019176248
-0.14508156 0.29186627 -0.11785326 -0.04974209 -0.071948975 -0.08919863 -0.008467971 0.2961778
0.04751446 0.05180554 0.253325 0.2578187 -0.29265267 0.28133407 -0.21775441 0.40089273
0.46465313 0.47570425 0.32722667 -4.523363e-06 0.09899367 -0.75060433 0.34824288 0.066458926
-0.21627158 -0.14868386 -0.23299122 0.33089647 0.13419817 -0.12505855 0.17744224 -0.0007178809
-0.18984549 0.41220474 -0.068696976 0.48259708 0.09823557 0.24123469 0.5353607 -0.021782573
0.03058578 -0.06901922 -0.31548586 -0.03959042 0.22130348 -0.2277617 0.0019285443 0.10279872
-0.17919447 0.5437893 -0.5649807 -0.4102116 -0.48153347 -0.4574441 -0.43204683 -0.16379873
0.079556 0.1962668 -0.01239544 0.048846044 -0.45409748 -0.22997144 0.11408227 0.042260434
0.029904079 -0.3088599 -0.000325863 -0.047084257 0.31581533 -0.014166417 0.13600925 -0.02493557
0.17229718 -0.14513928 0.6104408 0.63132834 0.24451244 -0.1143799 -0.43744174 0.18397622
0.33673957 0.05051064 0.42746526 0.25976795 0.35089827 0.326198 0.30457032 0.61763203
-0.2191167 -0.018776497 -0.20137951 0.49896652 -0.31668177 0.29564056 -0.08637281 0.55514604
-0.0029239948 -0.5485096 -0.2877989 0.3302615 -0.40459597 0.023725478 0.10205343 -0.4272566
-0.17696002 -0.5476512 -0.57726896 -0.14248309 0.086785465 -0.10049094 -0.06100177 0.3476683
-0.32584292 0.116967835 0.011507971 -0.19503753 0.11647399 -0.9111452 0.09961873 -0.12461877
0.508375 -0.5072346 0.19575796 0.047727596 -0.44412604 -0.14362618 -0.11505777 0.05414445
-0.016000519 -0.07827209 -0.4502299 0.60180193 0.7464104 -0.33342195 -0.22698887 -0.097938664
-0.12563267 0.19352213 0.5521965 0.040741764 -0.079529405 0.08949355 -0.31908327 0.20429906
-0.4223335 -0.17901862 0.12829246 -0.582485 0.28711146 -0.04003463 0.5596609 -0.029608306
0.045000717 -0.28334582 0.13201083 -0.1473368 0.55381334 -0.0104228 -0.040796094 0.64467967
-0.4020457 -0.30293733 0.10311501 0.045320153 -0.071147256 -0.03206443 0.031687923 -0.3511918
-0.6862178 -0.26867855 -0.04816152 0.11924779 -0.19795616 -0.2332019 -0.22571127 0.56919724

module.lstm.bias_ih_l0_reverse f4 [192]
00000000: 9638 953e 3e62 7ebd 19b5 213f a401 513f
00000010: 1c23 a73d 9bae 313d d530 fb3e d59f 983e
00000020: b03e 333f db9b b3bd 9084 08bd c9c7 903e
00000030: bf43 0e3f c44a 22bd 8114 833c 4fd5 403f
00000040: 72f5 b53e e31b 123e b1e5 d1bd 95d7 ff3e
00000050: e919 503e 9392 4a3e e594 143e 0ba8 af3e
00000060: 8b93 a53e f4b1 d33d 80c6 473d 5f41 2cbd
00000070: c414 f53e d388 42ba 5141 1d3e ce9c cd3e
00000080: 8567 0f3f e0fd 8abd 5330 fe3e b895 8b3e
00000090: d4e8 873f 8e89 4c3d 8f73 3cbe c42f 443e
000000a0: eedd 853e eda8 2e3f 3f31 babe b922 d63e
000000b0: 0df2 9b3e 0839 0abe 4d28 103f c2cc 12be
000000c0: d5c8 d03a 2367 3bbe 01a0 583e 821b 96be
000000d0: ba97 1d3f c75d 593e 3016 013f 6c3d 383f
000000e0: b9a7 b1be f7a2 7ebe 271e 263f 0e69 3b3e
000000f0: f899 893e 79fc 9b3e d463 673e 125c 0e3f
00000100: c8f0 14be f089 e4be 7362 803c 13b6 3bbe
00000110: a310 d63e c301 9f3e 14ce a8be 03b4 763e
00000120: 81ca e2be 63bf 0b3f 5e94 d1bb ca80 843e
00000130: eb6f 423e d0e7 d63c 4779 62be 1305 77be
00000140: 75c2 36bf a4f7 10bf 3fc5 413f 2abb ddbe
00000150: 33eb 023f 0c48 b53e 0802 103e 6da0 a1be
00000160: ea94 46bf 9fed 4e3e e6b8 a93e db06 933e
00000170: 7a68 6d3e 76ce 39be 0dd7 1fbf f62d 023d
00000180: eaff b53e 9c96 ad3c 8a17 de3e 5957 3e3f
00000190: e25c 9d3e b5b3 fe3d 00b2 ff3e 52c2 6bbf
000001a0: b0f0 fcbe ce70 c33e 9af3 b13d 8f24 a83e
000001b0: a9b3 dbbe ab28 f8be a00d 0fbe 92d5 d63e
000001c0: 175d 67be 947f 6d3e b664 0ebe ba6c a63e
000001d0: ad37 26bf 44c5 babd fd30 5fbd 7d40 c53c
000001e0: ea4d 373d 435c e43e a10b 1fbf 6f04 2a3e
000001f0: 08e7 19be 2335 153c ddda 783e 5b07 ea3c
00000200: bb90 903e 7ecd 94be 7354 15be 885f f3bd
00000210: c9ca af3e b210 08bf dc53 06be ab0e 53be
00000220: 82e9 99be b40a 47be af6e 9ebd c785 bcbd
00000230: d5d0 ebbe f4f4 1cbf 6813 8a3e 3cab 143f
00000240: 9613 f73d 1f4f 5bbf 2ca0 c6be ee67 cd3e
00000250: f859 613f 3253 45bf e536 abbe 0038 973e
00000260: 6736 00bd 0120 9ebe fc54 4f3f 5af3 2fbe
00000270: d26b 10bf 064e 82bd 0f8c 23bf f726 333f
00000280: df71 773e 479c 4abe db7b b53e d63b 333e
00000290: 7abc cb3f 3f69 c93d aeeb 243f cb77 cbbe
000002a0: cdb8 0f3f bb5c 10bf 6c2a 45be b8ba c1bc
000002b0: d16c 35bf d9e8 023e 85e0 c63e 2cbf 453f
000002c0: bc1d 223d 0570 1abf a558 f3be c06c 7fbe
000002d0: 50b5 b5be 2c7e e13e 00d6 e33e 25be 3abf
000002e0: 587f 853e 4477 17bf b394 aebe f8b9 ddbe
000002f0: c148 453e 1b59 14be 780d eebe c194 923f
0.29144734 -0.06210541 0.6316696 0.8164313 0.081609935 0.043379407 0.49060693 0.29809442
0.7001753 -0.087699614 -0.033329546 0.28277424 0.5557212 -0.039622083 0.016000988 0.75325483
0.35538822 0.1426845 -0.10248888 0.49969164 0.20322384 0.19782476 0.14509924 0.34307894
0.3233913 0.10336676 0.04877329 -0.04205453 0.47867405 -0.0007420901 0.15356947 0.40158695
0.56017333 -0.06786704 0.49646243 0.27262664 1.0617929 0.04993587 -0.18403457 0.19158846
0.2614588 0.6822651 -0.36365697 0.41823366 0.30458108 -0.13498318 0.56311494 -0.14335921
0.0015928993 -0.18301062 0.21154787 -0.29317862 0.6155964 0.2122718 0.5042448 0.7196872
-0.34698275 -0.24866854 0.6488976 0.18301794 0.2687528 0.3046606 0.22596675 0.5560924
-0.14544976 -0.44636488 0.015671944 -0.18331175 0.41809568 0.31056032 -0.32969725 0.24092107
-0.44295123 0.5458891 -0.0063958606 0.25879508 0.18988006 0.026233584 -0.22116576 -0.2412303
-0.7139047 -0.5662787 0.756916 -0.43306857 0.51140136 0.3540653 0.14063275 -0.31567708
-0.77570975 0.20207833 0.3314888 0.28716168 0.23184386 -0.18145165 -0.62437516 0.031782113
0.3554681 0.02118998 0.43377334 0.7435203 0.30734926 0.1243662 0.4994049 -0.92093384
-0.4940238 0.38172 0.086890414 0.32840392 -0.42910507 -0.48468527 -0.13970041 0.41959816
-0.22594105 0.23193198 -0.13905606 0.32504827 -0.64928705 -0.09119657 -0.05449008 0.024078602
0.04475204 0.4460164 -0.6212712 0.16603254 -0.15029538 0.009106907 0.2430224 0.02856796
0.2823542 -0.29063028 -0.14582996 -0.118834555 0.343344 -0.53150475 -0.13117927 -0.20611064
-0.30060965 -0.19437677 -0.07735955 -0.092052035 -0.46057764 -0.6131127 0.2696793 0.5807378
0.120642826 -0.85667604 -0.38794076 0.40118355 0.88027906 -0.7708007 -0.3344032 0.29534912
-0.031301882 -0.30883792 0.8098905 -0.17182675 -0.5641452 -0.06362538 -0.6388559 0.6998133
0.24164532 -0.19786178 0.35446057 0.17503294 1.5916893 0.09834527 0.6442212 -0.39739832
0.5614136 -0.56391495 -0.19254464 -0.023648605 -0.70869166 0.12784137 0.3884317 0.7724483
0.03957914 -0.6032718 -0.47528568 -0.24943829 -0.35489893 0.44041574 0.44499207 -0.7294639
0.26073718 -0.5916636 -0.34097824 -0.43305945 0.19266035 -0.14487116 -0.4649465 1.1451646

module.lstm.bias_hh_l0_reverse f4 [192]
00000000: 743c 253e 1237 4e3d 3040 363f 9032 2a3f
00000010: 5a83 023e c642 2dbe 22e3 e93e c6c1 8e3e
00000020: 9687 353f 5f8b ea3d 3685 20bc dbcb 933e
00000030: 99e7 0b3f 08cf 06be a72b 493d 6f1c 2d3f
00000040: 8c6f f83e e544 2b3e 271e f1bd cf54 fd3e
00000050: 4c85 e63d e029 14bd 495c 9f3e 4aaa 9a3e
00000060: ad62 b03e d6f4 283d 3eb9 c43d 18d6 8ebb
00000070: 4977 cb3e 64ca 82bd ec3b 033e baf4 e63e
00000080: aa42 063f 3c46 a93b d886 0e3f 42cc 813e
00000090: d6db 563f 03c4 92bd b414 423d 8806 783e
000000a0: 8c9c 803e 7918 233f b62c a9be 9e90 dd3e
000000b0: 3036 223e 1a18 913c 36c4 f83e 77e6 01be
000000c0: e27e 0bbd d886 73be bfd7 483e 7975 67be
000000d0: 286b 2e3f c7a1 1a3e c645 b13e f428 383f
000000e0: a8c0 6dbe 4c39 58be a42c 3b3f 9947 613e
000000f0: 1a13 ac3e 62af 813e 5ae2 8c3e 87e1 193f
00000100: 02fa 95bd 4e05 d9be c481 40bb 9d66 c9be
00000110: 28bd f53e 7e62 a43e f235 aebe c520 4f3e
00000120: 86a5 ebbe a301 083f a59a 933d 1e38 6f3e
00000130: 832c 643e 697c 2a3e 3fe3 96be 9e5d 3abe
00000140: 2f66 26bf 34a0 1dbf 4794 4c3f 76c9 cdbe
00000150: 6111 d03e 7b4c 103f 2317 3d3e 1eaf 8ebe
00000160: 6b6e 28bf d78f 5b3e 742e e83e 90f6 813e
00000170: a6d0 913d 5187 36be 8312 3dbf 799b ecbc
00000180: d6d1 b23e fb43 f7bd 7479 c03e c84e 523f
00000190: d98a 4f3e f8cb 643e d743 c13e 2512 5abf
000001a0: c738 14bf fce3 873e 3342 073e 8e81 c93e
000001b0: d9f6 d3be 1d43 c6be cef0 94bd 3177 ae3e
000001c0: 928f c7bd 9b0f b03e 969c 2ebe e204 8e3e
000001d0: 20ce 12bf 2ca6 24be b5fc 0e3d cd9d 9d3c
000001e0: 6938 9f3d a41f 033f 452d e9be 2b4f 5d3d
000001f0: 4ae3 b8bd b379 463c 037b 703e 7375 023e
00000200: a6df 02bf 1d2b babe 3b6d 89be 584e 3f3d
00000210: 7d23 503d cffc 9abe 8f60 52be 5ced 43be
00000220: 5819 a0be 6935 95bb 69db c43c e43f 89bd
00000230: 6d71 97be 386f d8be 7b0c 653e a891 fc3e
00000240: 1e42 2fbd c439 debe 2b2c f5bd e61c bb3e
00000250: 4f98 193f 36a6 15bf af72 9dbe 4181 893f
00000260: 4ce6 2a3f 93ab 01bf 180f 203f e62a 29be
00000270: a329 b3be f47f 19bd a93e 56bf 7d07 153f
00000280: a070 a13e 7ba4 e0be 5984 143e e855 da3e
00000290: a569 993f cc0d fa3d 0d11 b03e 8cbd 30be
000002a0: 91e1 883e 4265 e4be 4287 883e 154e 493e
000002b0: 1ca0 2bbf cfab 4e3d 4720 de3e 91ca 2f3f
000002c0: ddab 783e d67d 3bbf e95a d7be b277 88be
000002d0: 0f93 9abe a2cd a03d 056c 213f 55e1 0bbf
000002e0: 0c86 7d3e 91f5 3abe c4d9 64be d8eb a3be
000002f0: 46bd 933d 84a0 1fbf 92a9 bcbe e2e6 983f
0.16136342 0.050345488 0.7119169 0.664834 0.12745419 -0.16920003 0.456811 0.27882212
0.7091001 0.11452364 -0.009797385 0.28866467 0.54650265 -0.13164914 0.049113896 0.6762151
0.48522604 0.167255 -0.11773329 0.49478766 0.11255893 -0.036172748 0.31125095 0.30208045
0.34450284 0.04124912 0.09605645 -0.004359018 0.39739445 -0.06386259 0.12815827 0.45108587
0.5244547 0.0051658433 0.55674505 0.2535115 0.83929193 -0.071662925 0.047383025 0.24221241
0.25119436 0.6370922 -0.33041924 0.43274397 0.15840983 0.017711688 0.48587197 -0.12685572
-0.03405655 -0.23781908 0.1961355 -0.22603406 0.6813226 0.15100776 0.34623545 0.7193749
-0.23218024 -0.21115607 0.7311499 0.21999969 0.33608323 0.2532912 0.27516443 0.6010975
-0.07323076 -0.4238686 -0.0029374221 -0.393361 0.47995877 0.32106394 -0.34025532 0.20227344
-0.46024722 0.531275 0.072072305 0.23361251 0.22282605 0.16649021 -0.2947025 -0.18199775
-0.6499967 -0.61572576 0.79913753 -0.40192765 0.4063826 0.563667 0.18465857 -0.2786798
-0.65793484 0.2144159 0.4534794 0.25383425 0.07119875 -0.17825057 -0.7385637 -0.028882729
0.34925717 -0.12073513 0.3759266 0.8215146 0.2026781 0.22343433 0.3774707 -0.85183936
-0.57899135 0.26541126 0.13208847 0.39356655 -0.41399267 -0.38723078 -0.07272492 0.3407531
-0.09744181 0.34386906 -0.1705192 0.277381 -0.5734577 -0.16079015 0.03490897 0.019240284
0.07774431 0.51220155 -0.4554235 0.05403058 -0.09027727 0.012113976 0.23484425 0.12740116
-0.5112251 -0.36361018 -0.2684115 0.046705574 0.050815094 -0.30271003 -0.20544647 -0.19133514
-0.31269336 -0.004553486 0.024030404 -0.06701639 -0.29578725 -0.42272353 0.22368042 0.49329877
-0.042787664 -0.43403447 -0.11971315 0.36545485 0.5999803 -0.5845674 -0.3075156 1.074257
0.66757655 -0.50652426 0.6252303 -0.1652027 -0.34992704 -0.03747554 -0.8368936 0.5821455
0.3153124 -0.4387549 0.14503612 0.42643666 1.1985365 0.12209663 0.3438801 -0.17259806
0.26734594 -0.44608504 0.26665694 0.19658692 -0.6704118 0.05045682 0.43384 0.68668467
0.2428431 -0.73238885 -0.42061546 -0.2665382 -0.30190322 0.07851721 0.6305545 -0.54640704
0.24758166 -0.18257739 -0.22348696 -0.32015872 0.072138354 -0.623543 -0.36848122 1.194546

module.lstm.weight_ih_l1 f4 [192, 128]
00000000: e7f5 f4bc 8ba2 dc3d e62e 0bbe 38fc a8bc
00000010: 89b8 7b3e 3972 183f d8e6 803e 6701 863d
00000020: 9e6d 953c 0d0a 6f3e 1337 0ebe cbbc 083f
00000030: 136b 8a3e f693 183d e8a8 173f f19b 37bd
00000040: f8f3 06bd 529f 94be 1bd4 093e 6ea3 033d
00000050: 80e2 583e 86bf 46bd b378 cebd 3af1 603d
00000060: 28c0 f6bd 8644 633d e8e0 53bb e0e7 a5be
00000070: be5f b8bd 521f 05be 4352 5d3d 52aa 273e
00000080: aaca a63e 40c2 2dbe ce11 c5bd 966b 8bbe
00000090: 71b7 01bf 5e8a a0bd 4ab3 96be 3d27 93bc
000000a0: f094 303e 0051 d0bd c51b abbe 1d32 873d
000000b0: fc99 143a e5a5 06be 88bd 17be aa6b 833e
000000c0: 17a0 ad3e 52a8 0c3f aa95 393e e62f 0c3e
000000d0: 0b75 6e3d c392 6d3d 250c 5bbd 1756 10be
000000e0: a326 c33d 829f ae3e 02c3 91be b562 bdbe
000000f0: d2be d8bd 1eeb 973e 7da3 7dbe 673c d7bd
00000100: 266b ca3c 49ab e83d 8db6 2dbd cc00 5bbd
00000110: fce5 d33b 8350 91bd 9a1f a03d 1a59 01bc
00000120: 1ca8 d93d 29fc 913e a006 0ebf 3bb6 593c
00000130: 8ddb 14be a619 11bd fb57 b23e 7638 943d
00000140: 8820 0b3f 79ad dfbd 1f38 85be dd88 523c
00000150: 2713 9d3e 1666 bbbc 0b42 173e 5835 4a3d
00000160: d8b1 1dbe 8eaa e1bc 30ee a6bd 182e 9cbd
00000170: 91f9 f8be a286 523e 3ae3 e9bd 09c5 c2be
00000180: 0854 fa3d eb12 37be 24a2 593d 9749 15be
00000190: 530e 213f 6d33 183f cbcf be3d e67b fcbd
000001a0: ac19 573c 42d7 f5be 5ce6 2cbb 6d48 8d3e
000001b0: 93de e0be ab0f 6a3e 8b35 ecbe 1fa2 a83d
000001c0: b1cd 7abd 0b2a 9abd a0a4 2f3d 3c48 6d3e
000001d0: d11e 91be 0039 9dbe c81a 42bd 4a37 96be
000001e0: 6fd3 97be 2d51 ce3e 06c6 6f3c ee63 0fbf
000001f0: 4e8b 57bd d7ee 9b3d 78dd 953e df26 5f3e
00000200: 682f 9fbd 0935 7dbd 489c ba3e 347e d43d
00000210: 8eba 8abe 155c 013e 0f6f 69be 1437 b2bd
00000220: aa28 683e 9367 f23d 50b4 163c 6016 25be
00000230: a4f7 61bc 1249 923e f54a 23be c456 283c
00000240: 3a42 45be 9018 b2be 9531 a23e f433 9cbd
00000250: 63d4 3bbe 974f da3d b572 b93d 5e44 fb3d
00000260: d019 463d cc84 053e 99bc 8dbe 03ab 893e
00000270: 3958 633e aaeb 68bc 798d a33e b388 133e
00000280: 771c 853e 7bcb 9b3d a667 e9be 4f01 9e3d
00000290: bc80 11be 4f9f d43e b810 a2bd 0b01 033e
000002a0: 6c8e 82be a5e0 b63e 2b91 83bd 94aa c13e
000002b0: e151 81be 4bc8 8f3d d05b a83e 1e42 c83d
000002c0: e955 ce3d 27a9 043f 4c29 9c3d 037e 14be
000002d0: 1ccb 89bc d6f4 1c3e 5e91 2c3f 5112 a4bd
000002e0: 424e c43e c555 973e c6c2 a4bc 5029 9bba
000002f0: fe5f 6fbe a22a 4cbe e276 4dbe 04d5 be3a
00000300: dbab 9dbc 331a e4be 98ed 1dbd 7bbc e23d
00000310: 61be aaba a42a 9b39 dbcc 01be 8143 33be
00000320: 039f 693e 6447 1d3e e3e0 043e e86d 92be
00000330: 3e0b 7fbe a0bb abbe 49ef ae3e 3183 1f3d
00000340: cc6e f6bd 803a a1be 90f6 76be ae85 863c
00000350: b7db 58bd 160a 80be fecf c33e 5dbe f53b
00000360: e417 1c3d 6c6e 96be c77d a13d 566d 413f
00000370: e399 6c3e e4a5 f5bd 5493 5e3e 0fe1 efbd
00000380: 6234 1fbd 18c8 06be 5c60 93bd 2a6e ce3e
00000390: c51c db3e 88ee d43c 8c39 0a3f 8546 ccbc
000003a0: 0ad0 9abe c50a ec3d c66a 0dbf 82de 6d3e
000003b0: 0ec6 e8be 0c19 e43e 6ed0 043f 527d 933e
000003c0: 16af 273e e1b1 a0be e0d0 4e3e eacb ac3e
000003d0: deb3 52be e133 153d 3214 44bc 1ab2 c5be
000003e0: c1e1 70be c223 f9be 5f64 57bc f52f 153d
000003f0: 740c d03d 24be ba3e 233e c63d 46ca 86be
-0.029902412 0.1077319 -0.13592109 -0.02062808 0.24582113 0.5954929 0.2517612 0.06543236
0.018240746 0.23343678 -0.13888197 0.53413075 0.27034816 0.03725048 0.59242105 -0.04482645
-0.03294751 -0.29027802 0.13459818 0.03213828 0.21180153 -0.048522495 -0.10081615 0.05491755
-0.1204837 0.05548527 -0.00323301 -0.3240347 -0.090026364 -0.13000229 0.05403353 0.16373566
0.32576495 -0.16968632 -0.096225366 -0.2723052 -0.50670534 -0.078388914 -0.29433662 -0.017963046
0.17244315 -0.101716995 -0.33419624 0.06601355 0.00056686974 -0.13149221 -0.14818394 0.2566808
0.339112 0.54944336 0.18123499 0.13690147 0.05821709 0.05800129 -0.05347838 -0.1409534
0.09528854 0.3410607 -0.28469092 -0.3698937 -0.10583271 0.29671568 -0.24769397 -0.10509568
0.024709295 0.11360795 -0.042410422 -0.053467557 0.0064666253 -0.070954345 0.078185275 -0.007894779
0.106277674 0.28512695 -0.5547886 0.013288076 -0.14536877 -0.03542485 0.3483275 0.072373316
0.54346514 -0.10921759 -0.2601938 0.012850014 0.30678675 -0.022875827 0.14771287 0.04936728
-0.15399873 -0.027547147 -0.081508994 -0.07625979 -0.48627904 0.20559171 -0.11420293 -0.3804095
0.12223059 -0.1787831 0.053133145 -0.14578854 0.6291248 0.5945347 0.09316977 -0.12328319
0.013128679 -0.4801579 -0.0026382422 0.2759432 -0.4391981 0.2285754 -0.461346 0.08234047
-0.06123132 -0.0752755 0.042881608 0.23172086 -0.28343824 -0.3070755 -0.04738882 -0.29339057
-0.296535 0.40296307 0.014634615 -0.56011856 -0.052623086 0.076139145 0.2927053 0.21792172
-0.07772714 -0.061818156 0.36447358 0.10375634 -0.27095455 0.12632783 -0.22796272 -0.087019116
0.22671762 0.118361615 0.009198263 -0.16121817 -0.013791952 0.28571373 -0.15946563 0.010274593
-0.19263545 -0.34784365 0.31678453 -0.07627097 -0.18342738 0.10659712 0.09055082 0.122688994
0.04836446 0.13038939 -0.2768295 0.26888284 0.22201623 -0.014216343 0.31943873 0.14407615
0.2599828 0.0760717 -0.4558689 0.07715093 -0.14209265 0.41527793 -0.07913345 0.12793367
-0.25499284 0.35718265 -0.06424173 0.37825453 -0.2525778 0.07020625 0.32882547 0.09778236
0.1007498 0.51820606 0.07625064 -0.14501195 -0.016820483 0.15327772 0.6740931 -0.08011306
0.38340956 0.29557624 -0.020112406 -0.0011837874 -0.23376462 -0.19938138 -0.20064881 0.0014559333
-0.019246986 -0.44551238 -0.038556665 0.11071106 -0.0013026708 0.00029595674 -0.12675802 -0.1750622
0.22814564 0.15359265 0.12976412 -0.28599477 -0.24906632 -0.33541584 0.34166935 0.038943473
-0.120328516 -0.31489944 -0.24117494 0.016421165 -0.05294391 -0.25007695 0.38244623 0.0074994997
0.03810872 -0.2938112 0.07885318 0.7555746 0.23105578 -0.11994532 0.21735889 -0.117128484
-0.038868316 -0.13162267 -0.071961135 0.40318424 0.42795387 0.025992647 0.5399406 -0.02493597
-0.30236846 0.115254916 -0.5524105 0.23229411 -0.45463604 0.4455036 0.5188054 0.2880655
0.16375384 -0.3138571 0.20196867 0.33749324 -0.20576426 0.03642643 -0.011967706 -0.38612443
-0.23523618 -0.48660094 -0.013146489 0.03642269 0.10158625 0.3647319 0.096798204 -0.26326197
