checkpoints_3layerbidirectional_lstm/002.ckpt (torch, 979991 bytes, 26 tensors)

module.lstm.weight_ih_l0 f4 [256, 12]
00000000: 75f6 df3d bfae 023d 07e6 42be 3291 19be
00000010: c46a 4c3d efe2 583d 018c fbbd edcf c1bd
00000020: 578e 0b3d c2a9 b13d 31bf 84bc fea0 8b3c
00000030: 4f95 61bd f360 253c 8b68 5d3d 333b b73d
00000040: 847d 693e ffa3 08bd d2cb 803d 5aed b6bd
00000050: 2715 823e 50a5 c13e 5572 3cbe e39d 37be
00000060: da3f 363e 46aa e33d 7988 2d3d 5456 283e
00000070: 3d09 a3bd a001 3dbd 5a96 78bd b979 adbd
00000080: 9faa 03bd 9d0d 3b3e 1ad1 eabc 3725 2c3e
00000090: 5fe2 4abc aff5 2abe 1df4 463e f35d fb3d
000000a0: bdcb 96be f92d b73d 4ffd 93ba e27e 60be
000000b0: 78d8 07bc 2945 f6bd efa8 b23d d8f8 29bb
000000c0: a1b7 9fbd e2cb bf3c bb36 d13b baee c13e
000000d0: 2f7a bfba 9e52 43bd bd7e 0ebe c0bc 863c
000000e0: 182d a7bd 1368 8d3c d1ab 5abe 30df 7fbd
000000f0: 59f9 19be b5a1 93bc 88e6 213e 8698 09bc
00000100: a8fd d83d 0031 02bd 96d4 1d3e d04d 763d
00000110: 5bd9 09be b0f2 8b3d 8aed e73c e94b 093e
00000120: fcd4 60bd ae8b 38be 853c d03d a85d 9bbe
00000130: 98e0 43be 18c9 24be 03c0 e23d 638d 81bd
00000140: 8e77 c83d cb5c 8ebd 28f0 a6bd a2bd 543e
00000150: 295b a3bc 5fb9 a7bc 213e a0be 0ed0 b53d
00000160: e63a 7bbe 1bee 093e 3ac4 26bd c368 193e
00000170: 7193 303e cf81 d63c 981b bcbd 7abb c73d
00000180: 97db 8abd 6591 213e dd10 17be ddea ff3d
00000190: 3aa2 8ebe 2e4c ffbd 36eb 95ba 8763 aabd
000001a0: aa26 15bd e933 31bd 5f3b 0f3e 78a8 b63c
000001b0: 8d61 313d ea53 003e 7d0c 193e 4775 52be
000001c0: eb46 6cbe f4f4 a43d a9d1 2e3e 7a31 00be
000001d0: e7a9 37be d025 8abd 94ba 833e 9496 d13d
000001e0: 1f27 d6bd 679e c53d b0ed ccbd 449d 07be
000001f0: d5a7 88bd 81bb 2e3d 4cec 2b3e c640 343e
00000200: 9617 4a3e fb2e ae3b 5ce2 d9bc 95b7 c23d
00000210: cedf a43c b066 843d 0223 8d3e 5824 4abe
00000220: 7f28 953e 0f88 0e3e 9fec 843c c645 173e
00000230: 5e0c a83d 023c ab3d c2f7 943e 7109 e83d
00000240: aa4b 253d ada1 72be 7a8b 473e 85a2 363e
00000250: e1d5 1a3d 5a29 153c 491d 083c acb1 903d
00000260: 3b70 893d 003c 4a3e 6c6b febc 4d24 4e3e
00000270: 5d1c 28bd ca15 173e a2fc 36be 412d 093e
00000280: 586e ba3c 65d5 323e 2eee a63d c935 9a3d
00000290: 5003 c53e 540c d73d a945 373e 9832 30bd
000002a0: 498a 843d 2f4e f73d df4a 8abd 7c58 a83e
000002b0: 9f9c 4abe d47d b9bd 49b8 d5bb dec5 adbd
000002c0: 1652 65be 747a a13d a493 eabd 1874 233e
000002d0: 3268 123d bc49 6a3e 1dd2 64be 9458 aabd
000002e0: 188f 1fbd 4a3b 243d d851 a43c 1e1e 36be
000002f0: c180 533c cee7 c8bd bf29 26be 89b2 d33e
00000300: 9a56 9f3d ddf9 403d 2f7d 273d ddc5 87b9
00000310: 1e33 36be 7806 72be 2d71 e63d 51d4 2d3d
00000320: 01f4 49be 42d4 19be 53d7 2e3e 0e29 393e
00000330: afa4 73bc cce8 3b3d 316c 3abe 77ba 213e
00000340: 95ae 28be e328 93be 7dd1 86be af93 3bbe
00000350: a81e 49bc bb53 02be c8de 7bbe 3ae6 7bbd
00000360: 469c e13c 46d7 84bd 321c 963e 2fb6 6cbe
00000370: e0f2 d23d 7ed3 683e 9591 55be edd8 8c3e
00000380: 9b07 05be e6df c83d 13c4 8f3c ed79 863d
00000390: ff55 8abd 2841 483d 232d b1bd f236 363d
000003a0: b780 d7bd 69cb 6a3d 3499 64be 3ccf dcbe
000003b0: f8b9 bcbd e4cb ab3d d5ff 1c3d c0a1 11be
000003c0: 3145 db3c 1d35 11be e6af 4c3e 7931 133e
000003d0: 3e97 e03d 9921 833a 9f4c d63e 4d23 8c3e
000003e0: b8a5 eabc d66b dd3d 4225 f03b 77bc 923d
000003f0: d395 983d afff 6bbe 37fd e53d c7ec 95bd
0.1093568 0.031904932 -0.19033061 -0.14996794 0.049906507 0.052950796 -0.12282563 -0.09463487
0.034071293 0.08674957 -0.016204448 0.01704454 -0.055074032 0.010093915 0.054054778 0.08946838
0.22801787 -0.033359524 0.06288876 -0.0893199 0.25406763 0.37821436 -0.18402989 -0.17931323
0.17797795 0.111164615 0.04236648 0.16439182 -0.079607464 -0.046144128 -0.06069026 -0.084704824
-0.03214514 0.18266912 -0.02866416 0.16811071 -0.012383073 -0.16695283 0.1942906 0.12273779
-0.29452315 0.089443155 -0.0011290702 -0.21923402 -0.008291356 -0.1202491 0.08723628 -0.0025935676
-0.07798696 0.023412649 0.006384698 0.37877446 -0.0014608557 -0.04768621 -0.13915534 0.016447425
-0.08162898 0.01726154 -0.21354605 -0.062468708 -0.15036525 -0.018021444 0.15810597 -0.008398181
0.10595256 -0.03178501 0.15413126 0.0601328 -0.13461821 0.06833398 0.02831151 0.13407864
-0.054890618 -0.18022034 0.10167793 -0.30344892 -0.19128644 -0.16092336 0.110717796 -0.063257955
0.09788428 -0.069512926 -0.08151275 0.20775464 -0.01994093 -0.020474134 -0.312974 0.08877574
-0.24534187 0.13469736 -0.04071448 0.1498137 0.17243744 0.026184944 -0.091849506 0.09752555
-0.06780165 0.1577812 -0.14752527 0.124959685 -0.27858144 -0.12465702 -0.0011437896 -0.083197646
-0.036413826 -0.043262396 0.13987492 0.022297129 0.043305922 0.1253201 0.1494617 -0.2055255
-0.23073928 0.080545336 0.17072167 -0.12518874 -0.17935906 -0.067454934 0.25728285 0.102337986
-0.104566805 0.096493535 -0.10006273 -0.13243586 -0.066726364 0.042659286 0.16789359 0.17602834
0.1973556 0.005315659 -0.026597194 0.09507672 0.02012625 0.064648986 0.2756577 -0.19740427
0.2913246 0.1391909 0.016226111 0.1477271 0.08205484 0.08361055 0.29095274 0.11329926
0.040355362 -0.23694487 0.194868 0.17835434 0.037801627 0.009104097 0.008307763 0.07065138
0.067108594 0.1974945 -0.031057082 0.20131035 -0.041042674 0.14754406 -0.1786981 0.13396169
0.022757694 0.17464216 0.08150898 0.0752979 0.3847909 0.10500398 0.17897667 -0.043017
0.06471688 0.12075459 -0.06752562 0.32880008 -0.19786309 -0.09057203 -0.0065222126 -0.08485006
-0.22394595 0.07884684 -0.114539415 0.15962255 0.0357439 0.2287969 -0.22345777 -0.08317676
-0.038954824 0.040095605 0.020058557 -0.17784926 0.012909115 -0.09809838 -0.16226862 0.4134715
0.0778019 0.04711329 0.04089087 -0.00025896626 -0.17792937 -0.2363528 0.11252055 0.04243881
-0.19721986 -0.15022376 0.17074327 0.18082067 -0.014870807 0.04587631 -0.18205334 0.15793787
-0.16472848 -0.28742132 -0.26331702 -0.18318056 -0.012275375 -0.12727253 -0.24596703 -0.061498858
0.027540337 -0.06486373 0.29318386 -0.23116373 0.10300231 0.22736928 -0.20856316 0.2750925
-0.12991183 0.0980833 0.01754955 0.06566224 -0.06754684 0.048890263 -0.08651187 0.044485994
-0.10522597 0.057322893 -0.22324067 -0.43126857 -0.09215158 0.083884984 0.038329918 -0.14221859
0.026766391 -0.14180417 0.19988975 0.14374341 0.10966347 0.001000452 0.41855332 0.27370682
-0.028643474 0.10811584 0.00732866 0.07164853 0.07450452 -0.23046754 0.112299375 -0.07320552

module.lstm.weight_hh_l0 f4 [256, 64]
00000000: 00a6 f23e c718 b23c 778a 983d f576 0bbe
00000010: 2f84 32be 29a7 133c e284 85be 95f3 21be
00000020: 283a d53c aa3f 8b3c 8ccc 503e e78a a23e
00000030: 84b7 fdbc a12c 41be 4b50 813d 2947 243e
00000040: 650b 523e a983 0e3d 8985 09be dfaa c03d
00000050: 94eb b1be 5ce7 113d 2606 0abe d1db 97bd
00000060: 3492 983c d618 30be 78b6 d3bd 1f35 793e
00000070: 7c1d 8d3e 9b57 923e fac6 a43d 2e73 9fbe
00000080: 2292 01be 03fd c13d 6884 6fbd e208 1e3e
00000090: bf33 793e b61b 83bd 1ab8 0abd fc1e 4a3e
000000a0: a0d3 cebd aab7 0c3e b1f3 553e 1d03 673e
000000b0: 99ce 94bd c1ca 173e a3ef 04bd 1fd3 4b3d
000000c0: 7cb1 913d 76ea e0bc e32e 523e af5e a83d
000000d0: 1de4 d3bd a089 253d 4be7 8b3d b549 c9be
000000e0: 4bea 863e a92e 8cbd b09d 4dbe 3d58 84be
000000f0: f6b2 443d 0110 22be bc5e 13be ef6e 883e
00000100: 8656 a03b c859 a93d 8c38 ffbd a248 3e3e
00000110: c28a cc3d 48ca f238 aaff 183e 5d77 913d
00000120: b3c4 33be 9e28 e6bc bc7f a33c 64b5 05be
00000130: 4f30 7d3e 5d50 703e 7e01 e33d db9f c43d
00000140: 293c 4f3e a301 7abe eb62 15bb 2b7d 893e
00000150: 94da 63be 4b47 adbd 5b20 c6bd b265 35bc
00000160: effd 4bbc efb3 e4bd 13f1 fe3d c1f8 0fbe
00000170: f515 1cbe 1c04 253e bb65 bd3d d4aa b03d
00000180: c354 903a e1a6 353e 7952 443e 1e00 8b3a
00000190: 7acd 373e 691f 86bd 9e08 febc aa1e bdbd
000001a0: 2f13 bf3d 3f07 27be 4a65 05bd 6195 e6bd
000001b0: f778 c1bb 5831 4d3e de35 0ebd e53a 80be
000001c0: 915c f13d f468 2bbe f62d 433e 9a59 a93c
000001d0: 7d82 2f3b 17f8 943e c4c4 fdbd afb6 363e
000001e0: 872c f0bd 3877 69be cfad ea3d 047d 463c
000001f0: 1d1f 173e dc3f b73e 4080 8cbe 21c5 b23d
00000200: d3bf b8bd ee6b dfbd e725 1b3d 971f 1dbd
00000210: 81b6 d5bc b008 ce3d 3985 423d 8b0d af3d
00000220: 98e8 983d 7973 7fbd c880 0ebe 93b1 933d
00000230: 9562 62bd e032 41be ebd8 ab3d 9573 1d3c
00000240: 408f c1bd 2b61 eb3c d16d debd 239c b0bd
00000250: 63df 533c 22d1 d43b 07fa 233e 7332 f53c
00000260: de0e aebd ed0f 4ebd 64dc 77bd 0e0c 393e
00000270: 30fb a03d 9733 96bd 3fb4 9e3d c3ce 333d
00000280: c760 c83d 0d05 0d3e 3167 1dbd e871 3bbe
00000290: 701d 8b3d cb92 083e 9aea 253a 81c2 503d
000002a0: 87cf 3abe e7fc 003e 2ba3 28bc 178e ad3d
000002b0: 1ea7 13bb 1bb6 143e d9aa 50bd 6e13 2f3e
000002c0: 1186 84bd df91 033e bc12 293e c4b3 8cbd
000002d0: a491 d4bc 57d9 5cbc 91d3 d8bd e660 273d
000002e0: 83be 77bd d967 da3d d9e9 5c3e a2e7 cbbd
000002f0: c81f 0bbe 1feb 6c3d 6a70 2a3e ba10 2abe
00000300: 74c8 44be 3732 8cbd aa14 9a3d b893 edbe
00000310: c65c 853e 80dd a13d 5f4b fc3d 6c05 473e
00000320: fcc9 7fbe 1e90 66be 22c3 013e 8ddd 0fbd
00000330: 37d0 c8bd 560a 45bd f12d c1bc 4a7d adbd
00000340: a8ae 3f3d 2e3a 533d bd7e 073e 0597 c73c
00000350: 5220 d43d b84b 4f3d 927e 57bc f5ba 3bbe
00000360: 831a 593e d789 983c 0d30 16bd b1c5 843d
00000370: ad09 8cbe 06fc 983c 681f 19be 889b 273c
00000380: be14 2b3e 9f4b 01be e43d 66bd 7956 08bd
00000390: 213e a33d b409 30be d31b 60be 89ef 38bd
000003a0: 46d2 c9bd b90c a7bd adec 1cbe 419f 68be
000003b0: 6bb2 b2be b60b b83d 593e 913e 2765 9ebe
000003c0: f110 603d 1fbd 6cbd a6cb a6bc a84c 2ebe
000003d0: 924a 993d 0002 7d3e 29ae 6d3d 7720 b03b
000003e0: 8784 1dbd a8ba 52be a4d3 87bd 1e5c fbbc
000003f0: 1d2f a03e e60e 343e 443e 68bd 44fd acbc
0.47392273 0.02174033 0.07448285 -0.13619597 -0.17433237 0.009012022 -0.26077944 -0.15815575
0.026028708 0.01699813 0.20390528 0.317466 -0.030971296 -0.18864681 0.06314143 0.1604277
0.20512159 0.03479353 -0.13429846 0.09407591 -0.34750044 0.035621032 -0.13478908 -0.074149735
0.018624403 -0.17196974 -0.103375375 0.2433667 0.27561557 0.28582463 0.08045764 -0.31142563
-0.12653401 0.09472086 -0.05847588 0.15433076 0.24336146 -0.0640177 -0.03386698 0.19738382
-0.10098958 0.13741937 0.20893742 0.22559781 -0.07265968 0.14823438 -0.032455098 0.049761888
0.071139306 -0.02745555 0.20525698 0.082211845 -0.103462435 0.040414453 0.06831225 -0.39314047
0.26350626 -0.06844837 -0.20079684 -0.2584857 0.048022233 -0.15826418 -0.14391607 0.26647136
0.004893127 0.082690775 -0.12461957 0.18582395 0.099874035 0.00011577137 0.14941278 0.07102845
-0.17555504 -0.02809554 0.01995837 -0.13057476 0.2472546 0.23468156 0.11084269 0.096008025
0.20237793 -0.24414687 -0.0022794555 0.26853308 -0.2225135 -0.08460864 -0.0967414 -0.011071609
-0.012450679 -0.11167132 0.12448325 -0.14059736 -0.15242751 0.16114849 0.09247919 0.08626333
0.0011011589 0.1773944 0.19172086 0.0010604893 0.17949477 -0.0654896 -0.031009968 -0.09234364
0.09329831 -0.16311358 -0.0325673 -0.112589605 -0.0059043127 0.20038354 -0.03471934 -0.25044933
0.11785234 -0.16739255 0.19060501 0.020672608 0.0026780658 0.29095528 -0.12391046 0.17843126
-0.11727243 -0.22799385 0.114589326 0.012114767 0.14757963 0.35790908 -0.27441597 0.087290056
-0.090209626 -0.10909258 0.037877943 -0.038360205 -0.026088001 0.10060251 0.047490332 0.08547505
0.07466239 -0.062365983 -0.13916314 0.07211604 -0.055269796 -0.18867064 0.08390983 0.009610076
-0.09451151 0.028732857 -0.108607896 -0.08623531 0.0129316775 0.006494657 0.16013347 0.029931283
-0.084989294 -0.050308157 -0.060512915 0.18071005 0.0786041 -0.07334059 0.07749223 0.043898355
0.09784084 0.13771458 -0.03842849 -0.1830517 0.06792724 0.13337247 0.0006329209 0.050966743
-0.18243228 0.12596475 -0.0102928085 0.08474367 -0.002253003 0.14522593 -0.050944183 0.17097256
-0.06470884 0.12848614 0.16511053 -0.06870225 -0.025948353 -0.013479552 -0.10587228 0.040863894
-0.06048442 0.106643386 0.21573581 -0.0995629 -0.13586342 0.057841416 0.16644445 -0.16607943
-0.19217092 -0.06845515 0.075234726 -0.46401763 0.26047343 0.07903576 0.123190634 0.19435662
-0.24979395 -0.22515914 0.12672094 -0.035123397 -0.09805339 -0.04810556 -0.023581477 -0.084711626
0.046797425 0.051569156 0.1323194 0.024364004 0.10357727 0.05060932 -0.013152735 -0.18333037
0.2120152 0.018620415 -0.03666692 0.06483019 -0.27351132 0.018674862 -0.14953387 0.010229953
0.16707131 -0.12626503 -0.056211367 -0.03328559 0.079708345 -0.17191201 -0.21885614 -0.045150314
-0.098545596 -0.081567235 -0.1532466 -0.22717 -0.34901747 0.08986609 0.2836788 -0.30936548
0.054703657 -0.057797547 -0.020360779 -0.1702143 0.07484926 0.24707794 0.05802742 0.005374964
-0.038456466 -0.20579016 -0.06632164 -0.030683573 0.31285945 0.17583808 -0.056700006 -0.02111686

module.lstm.bias_ih_l0 f4 [256]
00000000: 40f5 25be 1152 aa3d e165 1ebe 1be9 d9bd
00000010: 7b2d ad3c 3e4f ac3d dc03 5abd 1811 04bd
00000020: a801 44bc 5674 7cbd b8fd 823d fdc4 2e3e
00000030: fef1 8d3e 5cd0 fabd 0efc c8bd 6513 3d3e
00000040: 48da 9abe 7364 203e ee31 b93d ce85 b83d
00000050: a7ff 94be de5a 04be bf17 27be 33de bfbe
00000060: c3e9 ef3c 3bee 4d3a 71e1 73be b4b9 08be
00000070: e191 823e c081 64be 4638 db3c 7119 37bc
00000080: adb4 9fbe bbf3 b93d a7be 94bc fd3c 913e
00000090: 11c0 a5bd 2ce5 4f3d abf6 0ebe a2c0 f73d
000000a0: 5dd3 52bd 0208 ae3d b89a 493e 7d19 063d
000000b0: 7a8c 0f3d d53a 6c3d e45b c2bd d308 febd
000000c0: 0581 a7bb 4870 9d3d b2b5 a03e 0224 373d
000000d0: ab34 46be 2460 8abe 0cc0 723c d3bb 683e
000000e0: 2138 83bd 39de 113c c8b6 343d 9f30 8abe
000000f0: 763d 94bd e29a da3d 945e 45bd 9bd3 99bd
00000100: 9b74 db3d 2c17 18bd efd0 c0bd 9632 9a3d
00000110: 7ea6 efbd c204 2c3c 26ca 0e3d 382e 90be
00000120: 0e9a afbd 0879 103d 6c71 c73d 8f3b 783d
00000130: e7f8 983d a243 b8bd 7a9c 9b3d a72b a63c
00000140: 49d4 94bc e044 8c3d 73ad d0bd 61ab eabd
00000150: d6fe e33d eb27 273e 00ec 76be 42ec c0be
00000160: fe89 813b f7ba e83c 56ab 6a3e 7f05 a23c
00000170: d302 c43c d9aa 163e 93be 2fbd 637e 53be
00000180: 6adb 5cbe d9f8 2abe fd39 eb3c 6294 f63c
00000190: 8ecb 993e 1cf8 d0bd 96d4 7c3c caad 13bd
000001a0: 25dc 573e cf69 8fbc 0931 d8bd a894 c23d
000001b0: ff41 8f3e dc2c 663d ccde e0bd 4f91 423a
000001c0: c117 0cbe 663a b63d dd3f 9b3e 9676 5c3e
000001d0: 1f4e 1a3d 74be c93c 7429 123e 95e2 df3d
000001e0: 992d 613d 62ba 5dbd 9f61 f2bd 54bd 19bd
000001f0: c258 c2bc 0916 af3d bd70 6c3e 7791 793e
00000200: d4a7 06be cac6 ffbd 60df 0d3e 8eb8 3d3e
00000210: 3ee6 4f3e 4268 08bc ffcf 323e c038 0ebe
00000220: 6605 acbd 9bc9 1abe 4302 c2bd 0918 80be
00000230: 21b2 303e fa69 07bb 80fc 51be e4b6 323d
00000240: e343 873e 222a 90bd 9844 863d 85a1 913e
00000250: d220 01bd ba82 febd 8f9f 443c 8ce8 f43d
00000260: ee2b 533e 3f5b 85bc 1123 643e 315f 11be
00000270: 2d83 29be 860d e53d a537 db3d f43b 9b3e
00000280: e536 203e b8ce bc3d bc86 a53e d939 bcbe
00000290: 3cd9 e5bd 8ffa 06bd 561f 0bbd 788f 56be
000002a0: d5e3 253e 9fe5 2fbd a328 d7be 2c91 95be
000002b0: 2e44 d2bd 378d 633d fcbf b8bc a6b0 933d
000002c0: bb07 17bd 1269 e3bb 843e adbe dea6 0dbe
000002d0: 8a4c cd3e c11b 4b3e da27 c83d 57e5 ba3e
000002e0: d320 29be db74 4fbe 6211 b73d 3597 243e
000002f0: 13d3 a1bd dc54 933e dc98 cb3d 3dc0 1a3d
00000300: 661f 8a3e ab80 8ebb b02c e3bd 15ec 9bbe
00000310: 8ae6 3a3d 8a35 83be 1104 83bc 5f84 18bd
00000320: 15db 8fbb 00a7 163e ffc8 97bd 1fdd 67bd
00000330: 137b 55be 410c 933b b5b1 26be 4505 2fbc
00000340: 7f97 8a3d 626f 463e f2b6 2abe d58b aebc
00000350: 912b 073d e9b6 35be f6e2 21be 4df8 f23b
00000360: 8640 883d ba0d 84bd e051 f9bd d929 c53e
00000370: ffeb 00be d7ea 203d 2d22 f9bc 241e a7bd
00000380: 3196 28bd 57b2 68be 9018 73bd 2daf bc3d
00000390: 72c2 61bd 6113 98be aaef 06be ccc3 c4be
000003a0: a219 a1bd 4850 76be 9001 903e 9802 b13d
000003b0: a284 ea3d 3132 143c 72b8 ebbb 1eba bcbd
000003c0: 1831 5cbe cfe2 49be 4e74 6a3e 7492 5c3e
000003d0: 5caf 123e c918 813e dc4c 153e f499 393c
000003e0: 996d aa3c 1f24 3ebc 0fc8 bc3d cd1f c8bd
000003f0: 25a0 8d3c 53db 443e c704 12bd 5f51 e0bc
-0.16206837 0.08316434 -0.15468551 -0.106401645 0.02113985 0.08413552 -0.053226337 -0.032242864
-0.0119632855 -0.061634384 0.06396049 0.17067333 0.27723688 -0.12246773 -0.098137006 0.1846443
-0.3024466 0.15663318 0.090427265 0.09009896 -0.29101297 -0.12925288 -0.16317652 -0.37474212
0.029286271 0.00078556285 -0.23816468 -0.1335209 0.25501922 -0.2231512 0.026760232 -0.011175499
-0.31192532 0.09079691 -0.018157316 0.28366843 -0.080932744 0.050755665 -0.13961284 0.12097289
-0.051471103 0.08497621 0.19687927 0.03273915 0.03504608 0.057673294 -0.09490183 -0.12404027
-0.005111816 0.076874316 0.31388623 0.044712074 -0.19356029 -0.27026474 0.014816295 0.22727899
-0.0640719 0.00890308 0.044119626 -0.2699022 -0.07238285 0.10674073 -0.0481859 -0.07511064
0.107156 -0.037131473 -0.09414851 0.0752918 -0.11701678 0.010499181 0.034860753 -0.28160262
-0.085743055 0.035271674 0.097384304 0.060603675 0.07469349 -0.08997275 0.07598205 0.020284487
-0.018167632 0.06849074 -0.10189333 -0.11458469 0.111325905 0.16323821 -0.24113464 -0.3768025
0.0039532175 0.028409464 0.22916922 0.019778011 0.023927128 0.1471361 -0.042906355 -0.20653681
-0.21568075 -0.1669649 0.028714174 0.030100051 0.30038112 -0.10203573 0.015431544 -0.03605441
0.21080072 -0.017506508 -0.10556228 0.0950101 0.2798004 0.056195125 -0.10979995 0.00074221654
-0.13680936 0.08897857 0.3032216 0.21529612 0.03767216 0.024626948 0.14273626 0.10931889
0.054975126 -0.054132827 -0.11835026 -0.037534073 -0.023723964 0.08549125 0.23089881 0.24371897
-0.13149959 -0.12489088 0.13854742 0.18527433 0.20302674 -0.008325638 0.17462157 -0.13888836
-0.08399467 -0.15115969 -0.09473088 -0.25018337 0.17255451 -0.0020662532 -0.20506477 0.04363145
0.2641898 -0.07039286 0.06556052 0.28443542 -0.03152544 -0.12427278 0.012000932 0.11958417
0.20622227 -0.016278861 0.22279002 -0.14196469 -0.16553946 0.1118422 0.10703973 0.30319178
0.1564594 0.09219116 0.32329357 -0.36762884 -0.11223075 -0.032953795 -0.03396543 -0.20953166
0.16200192 -0.042943593 -0.4202319 -0.2921232 -0.102669105 0.055554595 -0.022552483 0.072114274
-0.036872607 -0.0069400156 -0.33836758 -0.13833186 0.40097457 0.19834806 0.09773226 0.36503097
-0.16516428 -0.2025942 0.089388624 0.16073306 -0.07901587 0.2877568 0.09941265 0.03778099
0.2697708 -0.0043488345 -0.11092508 -0.30453554 0.045630015 -0.25626785 -0.01599315 -0.037235614
-0.0043901303 0.14712143 -0.07411384 -0.056607362 -0.2084773 0.0044875448 -0.16278727 -0.010682409
0.06767177 0.19378427 -0.1667135 -0.021306911 0.033000533 -0.17745556 -0.15809235 0.0074148537
0.06652932 -0.06447931 -0.121738195 0.3850849 -0.12590025 0.03928646 -0.030411804 -0.08160046
-0.04115886 -0.22724281 -0.059349597 0.092131 -0.055117078 -0.29702285 -0.13177362 -0.3843063
-0.07866217 -0.24054062 0.28126192 0.08643073 0.11451079 0.00904517 -0.0071936185 -0.092151865
-0.21503103 -0.19715427 0.22895929 0.21540242 0.14324707 0.25214222 0.14580101 0.011328209
0.020804213 -0.011605292 0.09217846 -0.097716905 0.017288277 0.1922429 -0.035649087 -0.02738255

module.lstm.bias_hh_l0 f4 [256]
00000000: 1a76 4dbc 9456 04bd 57fa d0bd 3f42 aa3d
00000010: 3a04 bcbc 371c 52bb c7f2 663d 7460 23be
00000020: 37d6 35bc b7f7 6cbe 1c16 213e e68a 823d
00000030: 7806 8c3e 020f 4ebe 69a9 e2bd 0b12 2c3e
00000040: 760b 80be 6a18 b2bc aa34 d6bd edd4 e73d
00000050: 1c9e 9abe c9bc 69be ce82 0dbe 15e4 6ebe
00000060: 1c5e a0bc 100b 3f3d 6d11 73be bbab b5bc
00000070: e51b 7c3e 33b3 4abe b346 043e 6002 83bd
00000080: b1d6 a4be 4189 b33a c14b 273c 5b2e 1b3e
00000090: 6efe 683d cedc bbbd 2614 a6bd 48be 8e3e
000000a0: c22b cbbd ac78 0bbc 9878 99bc 4717 193e
000000b0: 9111 18bd 95df 703e 1044 89bb 1c1e 60be
000000c0: 6ccc 4cbd 7a0d 273d 072d af3e 83db 85bb
000000d0: 1d30 e3ba 49b8 e5bd f7ac 16be ca26 7c3e
000000e0: 429c d5bb 82d4 65be d3b4 d9bd 92ad 02be
000000f0: 8734 d6bd e29c 6d3e 4d8c 363e b085 19be
00000100: ff7d dc3d 2c07 10be 1522 14be d512 873e
00000110: 660e 6bbe e04e 5bbd fe4f 993d c15f 73be
00000120: f1b7 3bbe c3d4 f5bd ee4f 7c3c 4b17 5cbd
00000130: 5313 b23d e970 55bd f05a 103d 5b72 5b3d
00000140: 8550 363d 31e7 d03d 95b1 3c3d ab61 8b3d
00000150: 2370 27bd bb1e ffbb 515c 86be 3acd ccbe
00000160: e555 bebd 24a1 d93c 31bd 023d c808 ce3b
00000170: ca45 03be 14d6 ca3d 154c 5dbd a571 09be
00000180: acdf 57be c032 23be 713f 8ebd 7cf2 9a3d
00000190: 5eba ad3d d3bf 46b9 1117 d73d c0fd ecbd
000001a0: ece3 4f3e 69ce 3abd b2bd 56bd 40cd 8c3e
000001b0: 4728 5d3e b513 2b3e 010d 55bd 9c68 ccbd
000001c0: 7728 a7bd b5d0 563d 5620 2f3e 533f 3d3e
000001d0: 44a0 0a3e 8e33 2bbe b6a0 503e 60bc 703e
000001e0: 3a1f 433d 2a5c 8bbe bdd0 8fbe 36cc 80bd
000001f0: 8666 2c3d 6ea3 653d 8d13 9c3e e467 ec3d
00000200: 375f 3ebe cde1 b3bd a38d d43d 3463 a03e
00000210: 9bc5 933d 666d 8f3c 80a8 1e3e 7375 b4bd
00000220: 95d9 883c 74a5 16be 1037 afbc 4365 e8bd
00000230: 25ff a0bc ca87 413e 777d 2e3b 253d b33d
00000240: 74dc 1f3e bec9 d7bd 1383 ad3d 9455 a43e
00000250: a741 5a3b 01fe 5bbe 30dd 4dbc 5304 0a3d
00000260: c20e 113e 57dc 7f3d 9646 663e 9093 0cbe
00000270: 3e46 93be 2b8f 4aba cd92 2c3e 5a4c a93e
00000280: 016c 2b3e 757b e83d b441 a23e e198 afbe
00000290: 4f6a a6bd 956b 3cbd f6a0 013e 2b6a 84be
000002a0: 9c73 3c3e 8285 703d 1537 91be 2796 a6be
000002b0: 1050 06be 927c 95bd 2417 48bc 081d 3b3d
000002c0: 948a afbd 78f7 e63c a7b2 6dbe 1fd3 15be
000002d0: b17c 833e c631 d13d d113 b0ba 70f6 d03e
000002e0: 6ad5 02be e8ad 0fbd d547 423e 2496 e43d
000002f0: 9e8a 31bd f016 c83e 6794 e23d af00 f73d
00000300: 5f7e 733e 665a 4fbd 3226 8bbe 3d61 bfbd
00000310: 9027 eabd 7109 76be e364 293e 2495 933c
00000320: 3a18 76bd b052 87bd df5d 57be 8bf5 b0bd
00000330: b333 43be 9f3d a13c 5363 54be cf90 ec3c
00000340: 7ee2 b03d 3b1e b3bb b111 0dbe 1e1b 63bd
00000350: 2d29 1e3e 470c 18be f804 44be 43a2 02be
00000360: 5b11 d13d ac92 58bd 154c 623d 1057 a43e
00000370: 6c0c 843d 818d a2bd 20b9 1dbe badf 2bbd
00000380: 451c 043d e0e7 62be 720e a8bd 3e9b 713c
00000390: b9dd d9bd b078 88be 7d33 9bbe e64f cebe
000003a0: f71e 44be 357d 1abe 36b5 273e 294f 1d3c
000003b0: 9e32 043e 6568 9a3c bb43 efbc 6fb9 4fbe
000003c0: 0d2e 57be 5444 21be 6c42 6b3e 204a 183e
000003d0: 6dc5 b13c 7fef c63b a8fb 533e 7a52 19bc
000003e0: f28e d3bd 61dc ccbd 3b70 0fbd 5b36 46be
000003f0: 8a9a 4c3d 30e3 7e3d ca93 0dbe 0ff1 6dbc
-0.012540365 -0.03230913 -0.102039985 0.08313417 -0.022951234 -0.0032060274 0.056383874 -0.15954763
-0.011098436 -0.2314137 0.1573109 0.06374149 0.27348685 -0.20122913 -0.11067469 0.16803758
-0.25008744 -0.021740157 -0.104592636 0.11319909 -0.30198753 -0.22825922 -0.1381943 -0.23329194
-0.019576125 0.04664141 -0.23737116 -0.022176614 0.24620016 -0.19794922 0.12917595 -0.06396937
-0.32195047 0.0013697521 0.010210932 0.15154402 0.056883268 -0.091729745 -0.08109312 0.27879548
-0.099204555 -0.008512657 -0.018734261 0.14950286 -0.037126128 0.2352279 -0.004189022 -0.21886486
-0.04999964 0.040784337 0.3421404 -0.0040850057 -0.0017333064 -0.1121679 -0.14714418 0.24624172
-0.0065188715 -0.22444347 -0.106301926 -0.12761524 -0.104592375 0.23204377 0.17826958 -0.14992404
0.10766219 -0.14065236 -0.14466126 0.26381555 -0.22954711 -0.053542018 0.074859604 -0.23766996
-0.18331887 -0.12003472 0.015399916 -0.05373315 0.08695092 -0.052109633 0.035242975 0.053575855
0.044510383 0.10200346 0.046067793 0.06805738 -0.040878426 -0.007785646 -0.26242307 -0.40000325
-0.09293727 0.026566096 0.03191871 0.006287668 -0.12819591 0.099041134 -0.054027636 -0.13422258
-0.21081418 -0.15937328 -0.06945694 0.075657815 0.08482812 -0.00018954212 0.105024464 -0.115718365
0.20301789 -0.045607004 -0.052427 0.27500343 0.21597396 0.16706736 -0.052014355 -0.0998089
-0.08162015 0.052445132 0.17102179 0.18481188 0.13537699 -0.16718885 0.20373806 0.2350936
0.0476372 -0.27218753 -0.28088942 -0.0628895 0.04208996 0.05606406 0.30483666 0.11543253
-0.18591009 -0.087833025 0.103785776 0.31325686 0.072154246 0.01750822 0.15493965 -0.08811464
0.016705314 -0.14711553 -0.02138856 -0.11347439 -0.019652912 0.18899456 0.0026625076 0.08751897
0.1561144 -0.10536526 0.08472266 0.3209654 0.0033303292 -0.21483614 -0.012564942 0.03369553
0.14165786 0.06246599 0.22487864 -0.13728166 -0.28764528 -0.0007727022 0.16852875 0.33066064
0.16740419 0.113516726 0.31690753 -0.34296325 -0.081257455 -0.046001036 0.12659058 -0.2586225
0.18403476 0.058721073 -0.28362337 -0.32536432 -0.13116479 -0.072991505 -0.012212548 0.045681983
-0.085713536 0.028194174 -0.23212682 -0.14631318 0.2568107 0.10214572 -0.001343364 0.40813017
-0.12776724 -0.03507796 0.18972714 0.111614496 -0.043345086 0.3908 0.11063462 0.12060677
0.23778675 -0.05062332 -0.27177578 -0.093447186 -0.11433327 -0.24027039 0.16542391 0.018015452
-0.060081698 -0.06607568 -0.21031903 -0.086405836 -0.1906269 0.019682704 -0.20741014 0.028877644
0.0863695 -0.0054662502 -0.1377628 -0.055445783 0.15445395 -0.14848433 -0.1914252 -0.1275721
0.102083884 -0.052874252 0.05524834 0.32097673 0.06447682 -0.07937146 -0.15402651 -0.04196141
0.032253522 -0.22158766 -0.0820588 0.014746485 -0.10637993 -0.26654577 -0.3031272 -0.40295333
-0.19152437 -0.15086825 0.1637772 0.009601393 0.12909934 0.018848607 -0.029207101 -0.20285581
-0.2101366 -0.15748721 0.22974557 0.14872026 0.021700585 0.0060710306 0.20701468 -0.009358043
-0.10329999 -0.100029714 -0.03501914 -0.19356672 0.049952067 0.06222838 -0.13825908 -0.014522805

module.lstm.weight_ih_l0_reverse f4 [256, 12]
00000000: 466a 433d 574e 4d3d c5c4 62bd 65f7 f7bd
00000010: 3cc4 e2be 5695 af3d 58f2 253e f157 103d
00000020: cf08 70be d11b 85bd ac0f 993d 1734 a13e
00000030: 306e a43d 2c67 813e 7843 8dbd cad0 57be
00000040: 1b0e 00bd 0266 71bd 5c7c f63d b748 a9be
00000050: d3eb 87be 79e8 ddbd b114 c1bd fdbf 973d
00000060: e0cc bebd 868e 233c 2502 a5be 58fe cabd
00000070: 5ab4 e1bd 7379 48be e1b0 5b3c 2117 143e
00000080: d90f 3bbd 6c78 07be e2b3 d13d 803d 6b3e
00000090: 5306 563e 78e6 2a3c 236b a63d ab69 5abd
000000a0: 0484 da3d 7a4b 62bc 00d9 48bd 1abe 2abd
000000b0: 0441 84be 3e5c 2ebe d82f 6fbd b2d9 53be
000000c0: 85d2 e33c 3b34 d7bd 7046 2b3e d9e9 053d
000000d0: 2b9e 933e d8e8 d13e c1b5 8b3d 7821 013c
000000e0: 60a5 c03d 7ea6 c53d 2849 8fbd b05f 2fbc
000000f0: 248d 2ebe 1ca2 cb3c be46 7d3d 0e20 d5bb
00000100: 53ed 843d 588c 123e 26e7 d4bb 0449 bf3d
00000110: 0990 25be cdc3 553e d135 0fbe 6bd2 6cbd
00000120: 4af1 863e a3f9 8a3d b040 08be 9cb6 babd
00000130: 75d2 dbbd 9b9c 1abe 6214 a93d 0bee e03c
00000140: 5bf3 22bd a888 913c aef5 80bd 55e6 4ebe
00000150: 8d77 39be 5891 7e3c 2c4e 67be 9c6b 0ebd
00000160: 1e8e c93d e19f a4bd 42d1 73bd 4a7f 783d
00000170: 5a40 113d 65cb 2bbe 3694 68bd eed6 a1bd
00000180: b29f e8bd d07a 393d 99b4 ccbd 4331 bdbc
00000190: b3ee cf3d a97a 69bd 87bd e63c 6092 a23e
000001a0: aeec 263e 0423 3d3e 11ad 5ebe b1b1 99bd
000001b0: 5df1 23be 2011 e6bd de44 eabc 44fa 23be
000001c0: c255 193c 0c02 6f3d b15a c33d 9623 f93d
000001d0: dbb3 8abc 846b e53c 8b8c bd3d e327 453e
000001e0: 4daa 9dbd 724d 903d 8eb8 a53b 71fa 8d3b
000001f0: cbe6 edbd 6110 5bbd a1b8 d4bd d4fd 93be
00000200: a0f0 4dbe 0903 7dbe 94b3 023d 403c f4bc
00000210: 979e ea3b f1a2 e1bb 00b2 13be d7b5 173c
00000220: de81 9b3d 0fbf a3be 72d9 ddbe c458 9fbd
00000230: 2e0f bf3e 42ad e6bb ac6c bebd 1b31 74bd
00000240: d932 833c 6fdd abbe 5ba6 43bc c91e 193d
00000250: f376 b1bc cab7 86be 4c33 78be 5b1f acbd
00000260: 0518 1fbe 89e5 383c 13b8 99be a1ec 453e
00000270: 2c6d 8bbc 4ff0 493e bed0 033d 9207 5c3e
00000280: 8805 56bd c7f1 663e 6951 bfbd 7f46 193e
00000290: e94a 033e 184a 073e 08be 8e3b 9714 2f3e
000002a0: fdbf b7bd 0505 f53d ce93 1a3e ccdb d4bc
000002b0: f9ac 773c dabf 2f3e a557 4c3c 6ae5 3fbd
000002c0: cf54 19bd a487 053c bab6 6d3d 9636 eebd
000002d0: f508 1bbe 1428 c7bd a185 1abc f89e 83bd
000002e0: 1ee8 cb3d c05b f63d 0707 31be 17a3 323e
000002f0: 4676 623d ccf5 bd3c eac4 eb3d 29d6 b13d
00000300: c145 4b3d 50ca 03bd accc 1f3e 603f 6b3e
00000310: 77c5 ba3d 82f1 63be 7ce0 36be 72b6 e83d
00000320: b543 4fbe f716 90bd 68fd 34be d145 1abe
00000330: d5bc 6f3d b969 773e aae8 0a3e 577a 813d
00000340: ae19 0a3d 3586 f4bd b4c1 593d 5d7f d73d
00000350: 33ca 933d 20a6 453d f18f a33e 6b70 153e
00000360: adc1 8ebd 92d1 db3d 0407 bbbd babe b53d
00000370: c8e1 34be 3650 7b3e c5ca cc3d ed41 96bd
00000380: c59a 86bd 3e6d 7a3c a88e 893d 7f3d debd
00000390: c6ba 8abe d7bd 81bd 0024 39be 2700 67bd
000003a0: f064 8abd 84af d9bc 1476 0fbe 7c0e 553d
000003b0: f56b b2bd 5b4a 4abd e5b2 85bc 00c6 983d
000003c0: 0567 c53d 0719 b13c de60 263d a249 f7bd
000003d0: 28dc 87bd 0fc1 80be b49c 413e 9588 6e3e
000003e0: d64c 073e 9d60 c33d b6e7 913e d535 013e
000003f0: 7d6c 1f3d ee3d 87bd 7ea4 7f3e 0b02 40be
0.047708772 0.05012354 -0.055363435 -0.12107734 -0.4429034 0.085734054 0.16205728 0.035240117
-0.2344086 -0.06499446 0.07473692 0.31485054 0.08028829 0.25274026 -0.06897634 -0.2107574
-0.031263452 -0.058935173 0.120354384 -0.3306329 -0.26547107 -0.10835356 -0.09427775 0.07409666
-0.093164206 0.009982711 -0.322282 -0.099117935 -0.110207275 -0.19577579 0.01340887 0.14461948
-0.04566941 -0.13229531 0.10239388 0.22972679 0.2090085 0.010430925 0.081259035 -0.05332343
0.10669711 -0.01381194 -0.049035072 -0.0416852 -0.25830853 -0.17027375 -0.058395237 -0.20688513
0.027810344 -0.10508009 0.16726089 0.032693718 0.2883161 0.40997958 0.06821776 0.007881515
0.09406543 0.096508965 -0.06996375 -0.010703966 -0.17046028 0.024857573 0.061835043 -0.0065040654
0.064905785 0.1431135 -0.0064972816 0.093400985 -0.16168226 0.20875473 -0.13985373 -0.057817858
0.26355964 0.06785896 -0.13305926 -0.09116861 -0.10733501 -0.15098803 0.08255841 0.027457258
-0.039782863 0.017765358 -0.0629686 -0.20205052 -0.18112011 0.015537582 -0.22588414 -0.034770593
0.0984156 -0.08038307 -0.059525736 0.060668267 0.03546176 -0.16776808 -0.05678197 -0.07902323
-0.113585845 0.04528314 -0.09995384 -0.023094779 0.1015295 -0.057001743 0.028166546 0.317523
0.16301224 0.18470389 -0.21745707 -0.07504595 -0.16010042 -0.11233735 -0.028597292 -0.16013438
0.009358825 0.05835156 0.095387824 0.121649906 -0.016931465 0.028005369 0.09255322 0.19253497
-0.07698498 0.070460215 0.005057401 0.0043328335 -0.11616286 -0.053482417 -0.10386778 -0.28904593
-0.20111322 -0.24708189 0.03190954 -0.029813886 0.0071600187 -0.006885879 -0.1442337 0.009259663
0.075931296 -0.31981704 -0.4332996 -0.077806026 0.3731627 -0.007039697 -0.09298071 -0.059617143
0.016015457 -0.33567378 -0.011941518 0.037382875 -0.021663165 -0.26312095 -0.24238318 -0.08404418
-0.15536506 0.011285194 -0.3002325 0.19328548 -0.01701983 0.19720577 0.032181494 0.21487263
-0.05225137 0.22553168 -0.093417 0.14968298 0.12821545 0.13211858 0.0043561496 0.17097698
-0.08972166 0.11963848 0.15095446 -0.025983714 0.0151169235 0.1716303 0.012472068 -0.046849646
-0.037434395 0.008150015 0.05803559 -0.11631505 -0.15140136 -0.09724441 -0.009431274 -0.06426805
0.09956382 0.12029219 -0.17287837 0.17445026 0.055288576 0.023188494 0.11512168 0.08683426
0.04962707 -0.032175362 0.1560542 0.22973394 0.09119695 -0.22260097 -0.17859071 0.11362924
-0.20240672 -0.0703563 -0.17674792 -0.15065695 0.058529694 0.24161424 0.13565317 0.063221626
0.033715896 -0.119396605 0.053163245 0.105223395 0.07216301 0.048254132 0.31945756 0.14593665
-0.069705345 0.10733332 -0.091321975 0.08874269 -0.17664254 0.24542317 0.09999613 -0.07336793
-0.06572489 0.015284834 0.06716663 -0.10851573 -0.27095622 -0.06335037 -0.18080139 -0.05639663
-0.067575336 -0.02657295 -0.14009887 0.052015767 -0.087119974 -0.049387317 -0.016320655 0.074596405
0.0963879 0.02161838 0.040619723 -0.12074591 -0.06633788 -0.25147292 0.18907434 0.2329429
0.13212904 0.09539912 0.28497094 0.12618192 0.03892182 -0.06603609 0.24965093 -0.1875078

module.lstm.weight_hh_l0_reverse f4 [256, 64]
00000000: 8576 e03b 3f52 cbbc 5641 863d 006c 04be
00000010: 5e8e 663d 33f8 b3be 8647 173e 5b30 b53d
00000020: febd 18be fe17 51be 4842 08be 034c 473e
00000030: 3e1a a9bd 146a 96bd 6b9d c3bd 5ad4 733c
00000040: ad68 a73d b5e3 5ebe 0312 64bd 335c dbbd
00000050: 319f 503d c22b 3f3e 9ad9 143c 07be 303e
00000060: a8c5 c63b 006e 293e 10e5 a03c e6c4 1bbe
00000070: bc4c e1bd 31ea ea3d 11db e03d 47d8 173e
00000080: db30 f83d 8244 7f3d 9458 303d 8b5b 36be
00000090: 9919 a33d 9e23 2d3e 30c6 72bb 3f01 28be
000000a0: 2b0c 833d 123a a7bd 8e04 fb3b d825 493d
000000b0: 7fb8 b23d b594 623e fd1e a13d b4a5 7d3e
000000c0: 1195 393e 239a 343e d1fa d53e 58c9 ff3d
000000d0: 2b97 203c c945 34bc 28a2 d4bd b1fd 763e
000000e0: a77a c23d 01ad dabc 3bc9 15be 1ccf ba3d
000000f0: 474a 0ebe 23c4 12bd 34a8 c1bc 77a1 143d
00000100: a770 2cbe 822d 73bb f551 993c 6d7b c3bd
00000110: 79b0 6c3d 7ea8 753d 29a3 9d3d 2a1f 58be
00000120: aa17 593e afe1 c03e a711 cd3c 5f4c ac3e
00000130: 69e9 bd3d c574 e2bd 4764 8c3d 92a8 d73c
00000140: 5587 05bb 908e ae3d 8de8 483c 7644 1a3e
00000150: 8ca8 54bc 6188 74be 0aa6 2bbe d967 083e
00000160: f264 5e3e 90e0 d9bc f8b2 553e d34a 503d
00000170: 6fbe c9bc b1cd 183d a166 fa3d f12f 483e
00000180: 6592 463d 4941 653e 1ece 6abd 8f0f 21be
00000190: bc89 aebd 447a ab3d 890e c4bd 926b 92be
000001a0: 644d cf3b 0d74 55be 4ed6 5dbe b8a4 e1bc
000001b0: a31a eb3d 447b 923d 4796 83be c05c 563d
000001c0: 5dec 4a3e d1d9 28be 35c1 223d 9159 e4bd
000001d0: 1deb 0a3e a90b 723d a689 6d3d ff53 183d
000001e0: da6a e3bd 8021 b2bc b87b a3bd f785 633e
000001f0: cd2f 80bd 566f 01be a20a 723e 292a 0bbd
00000200: 3f73 233e 276b ec3d eb26 843d 8a02 293e
00000210: 1407 4a3d a74e 0f3e 38f4 0dbd 71d3 263e
00000220: 492e d73c dff7 81bd c436 c8bd ae90 5c3e
00000230: 57d6 43bd 23ca f0bd 0eb1 1abe 8265 ff3d
00000240: ec07 ec3d 5b8e d0ba 8f3d 533d f0fd 01be
00000250: 25f4 a2bc f061 61bc 5d56 8a3d 717d 0a3d
00000260: 29cf 263d 5b32 803e 511b bc3d 5056 9c3d
00000270: 7fed 43be 730d 4cbe 54ab 01bd ff45 13be
00000280: 7db9 cdbd e431 09be c6b2 5c3e 82b4 e5bd
00000290: c48b 85bd f334 403e 14ff afbc 53f7 6e3c
000002a0: b512 853d 745e da3d 1d3d 2c3c 3b77 96bd
000002b0: b3eb 11bd 8eef f2bc ab2b ca3d 020d 0fbe
000002c0: dab2 203e c801 e33d 2d0a 693e 6cd7 58bd
000002d0: 8488 473e 99e5 653d 9857 63be 0a15 1cbd
000002e0: eb2e 27be f949 c8bd 1f54 70be c14c a63c
000002f0: f3dc ccbe c268 b13d 5203 92bd 88fc e7bd
00000300: 631c 523e f684 05be c7d7 9d3d cc2d a3bc
00000310: e51d 043e 2d0e e2bd f982 a4bc 1d15 7c3e
00000320: 2d38 8c3d 5d5e b93d 45a1 5ebd 2bbc 603e
00000330: 9cb8 793e a13c 4ebe 0228 1fbc 0b1f b9bc
00000340: ce1e d7bc c53a 86be a8ea 1abe 5c8f 843e
00000350: 44a9 8fbb 2a21 67be 1a74 34bd 0e72 ba3d
00000360: 4658 913e dbb0 2c3e ae6d 1b3d 80c7 363d
00000370: 0483 43bd 0ef5 c63d a77e 8abe 5481 013e
00000380: 5857 ddbd 8b7a 18bd a7bc 303e edce e8bc
00000390: cb72 b13c d54e c93d 1eda 853d 6c9b d43d
000003a0: d449 4d3e e60a 01be a4d8 b3bd 4568 97bc
000003b0: b893 a0bb d614 423d 0a77 8abd bf64 f1bd
000003c0: 9b12 993c 3cee 313d 8524 7b3e af6b f03d
000003d0: 12d5 f2bd 02e2 78be da02 1d3e f964 f63d
000003e0: 0d7f 4b3e 6510 3abe ac23 3ebe ca77 763e
000003f0: 8e18 1e3e 4a3e fe3d eda8 a23e db82 8fbd
0.006850066 -0.024819491 0.065554306 -0.12931824 0.056288116 -0.35150298 0.14773378 0.08847114
-0.14916226 -0.20419309 -0.13306534 0.1946259 -0.082569584 -0.073444515 -0.095515095 0.0148821715
0.08174262 -0.21766551 -0.05568124 -0.10710945 0.050933067 0.18669036 0.009085083 0.1725999
0.006066043 0.16545868 0.019640476 -0.1521183 -0.11000964 0.1147045 0.109792836 0.14828597
0.121186934 0.062321194 0.043053225 -0.17808358 0.07963867 0.16908118 -0.0037044398 -0.16406725
0.06398805 -0.08165373 0.007660455 0.049108356 0.08726596 0.2212704 0.07867239 0.24770242
0.1812327 0.17636923 0.4179292 0.12489575 0.009801666 -0.011002966 -0.10382491 0.24120213
0.0949605 -0.026693823 -0.14627545 0.09121534 -0.13895522 -0.03583158 -0.023639776 0.036286797
-0.16839848 -0.0037105982 0.018715838 -0.09545026 0.057785485 0.05997514 0.07697136 -0.21105638
0.21200433 0.37672183 0.025032831 0.33652017 0.09273035 -0.11057428 0.06855064 0.026325498
-0.0020374854 0.085232854 0.012262476 0.15065178 -0.012979638 -0.2388015 -0.16762558 0.13320865
0.21718195 -0.026596338 0.20869052 0.050852608 -0.024626939 0.037305538 0.12226606 0.19549538
0.048479456 0.22388186 -0.057325475 -0.15728591 -0.085223645 0.0837293 -0.09573085 -0.28597695
0.0063263644 -0.20845051 -0.21663782 -0.027544364 0.1147969 0.07152417 -0.2570059 0.052334547
0.19816728 -0.1648934 0.039735038 -0.11149896 0.13566251 0.05909315 0.0579926 0.03718948
-0.11104365 -0.02174449 -0.07982582 0.22219072 -0.06259117 -0.12640128 0.23636869 -0.033975754
0.15961932 0.11543875 0.064527355 0.16504875 0.049323156 0.13994847 -0.034656733 0.16291596
0.026267188 -0.06346106 -0.09776071 0.21539566 -0.047811832 -0.117573045 -0.15106604 0.12470533
0.115249485 -0.0015911566 0.05157238 -0.12694526 -0.019891808 -0.01375626 0.06754754 0.033811036
0.040724907 0.25038418 0.09184898 0.0763365 -0.19133566 -0.19927005 -0.03165753 -0.1438217
-0.10045145 -0.13397938 0.21552572 -0.1121607 -0.06520799 0.18770199 -0.021483935 0.014585334
0.06497709 0.10662547 0.010512617 -0.0734696 -0.03562517 -0.029655244 0.0987161 -0.13969806
0.15693226 0.11084324 0.22757788 -0.052939817 0.1948567 0.056127165 -0.22201383 -0.038106002
-0.16326492 -0.09779734 -0.2346959 0.020300271 -0.4001232 0.08662559 -0.071295395 -0.113274634
0.20518641 -0.13039002 0.07707172 -0.019919299 0.12902029 -0.1103786 -0.020081984 0.24617429
0.06846652 0.090512015 -0.054353017 0.2194678 0.24386829 -0.20140316 -0.009714128 -0.02259781
-0.026259806 -0.26216713 -0.15128577 0.25890625 -0.0043841917 -0.22571245 -0.044056036 0.091037855
0.2838766 0.1686434 0.037946396 0.04462385 -0.047732368 0.09714709 -0.27049753 0.12646991
-0.10807675 -0.03722624 0.17259465 -0.028418982 0.021661183 0.09829489 0.06535743 0.10381207
0.20047694 -0.12601814 -0.08781555 -0.018482337 -0.004900422 0.047383152 -0.06760986 -0.11786794
0.01868563 0.04344009 0.2452565 0.11739289 -0.11857046 -0.24304965 0.15333119 0.12030978
0.19872685 -0.18170317 -0.18568295 0.24069133 0.15439054 0.124142244 0.31769505 -0.070073806

module.lstm.bias_ih_l0_reverse f4 [256]
00000000: 883c 4bbd 771f 9bbd 95e1 f6bd f3e6 06be
00000010: 8bdd 21be 7d53 793e 73d7 843d 871f 923d
00000020: 407b 333d 0cf0 a73d 5779 2b3e 246e 28bd
00000030: 9730 03be 0d64 3c3e d71b 113e d8b3 b93d
00000040: 2aec 223d 6cb6 bf3d 5abd 2d3e 87cb a0bd
00000050: 8185 86bd 2a1f c1bc 6d04 c5bd a6f9 87bd
00000060: fb40 f7bc b84f 8cbd acd6 98be 1d66 a3be
00000070: 66e8 33bc d49f 00be 7dd2 7cbd e46a 033e
00000080: 556e 8d3d 3238 343e cad3 01be 68af 1a3e
00000090: fff4 3dbe a1d3 dfbd 20a3 063e 9b3e 40be
000000a0: ba78 f83c 8d94 a1bd 958c 74bd 5a93 e4bd
000000b0: 881b 5b3c edcb a33d c579 803e 2991 253d
000000c0: eac3 b33d 25dc 47be 6fcd 9ebd 94e4 d43d
000000d0: a91b f3bd 3dcf d93c f0ea 8b3b 1afa 56be
000000e0: 6ad0 a73c b51c 35bd e381 043c 7947 babd
000000f0: 4364 a63c 2eed 38bd 4f3d 353d 4d3f 1abd
00000100: 327f a5be e18a b83d a4ee 84bd 0342 4abe
00000110: 18f2 1dbe a37a 16be 82f9 dd3d 757b 843e
00000120: 1296 9dbc daf2 83bd 376a 4abe 0932 46be
00000130: abe9 7dbe e663 b33c a416 dfbd 721a 92be
00000140: 063c 303d d728 823e aad3 733e c313 73be
00000150: c87f 14bd bfaa c4bd a755 39be b62f 983d
00000160: 9b20 063d c1fa 1c3d d83c 92be 57f0 14be
00000170: 26fb 343d 6c48 a7bc 7d9d 39bc 8efb c1be
00000180: 6d56 8e3c a6d2 3bbe bee1 43be 8ee6 22be
00000190: 8ca1 0bbd 2c01 683d 648b 76be a891 63be
000001a0: 9366 71be c84c d0bd 4ca7 7bbe c06b 613e
000001b0: 872f 92bd cd1f 76bd b52b 61be 3c8b bfbb
000001c0: ad13 bcbd c922 e0bd c5a1 1e3e faa5 1bbe
000001d0: 614d b93c c81d c8bc 2b5a b9be c66b 5dbe
000001e0: c3c6 2cbe 8741 38be a8f3 d1bc dcc3 e5bd
000001f0: d9f4 303e f777 c8bc eab3 e03a bbc1 8ebc
00000200: 0a71 443c 0f2a 95bd d637 21be 4a16 01be
00000210: db78 6bbe b60f b1bd 6251 b9be 42c2 38be
00000220: 23ac 6cbe a07d 2dbe 7f63 f83c fbb2 a5be
00000230: d5ce 25bd ad70 22bd 681a 8fbd 4103 893d
00000240: 54e6 92be 9142 e23e 3956 1bbe b791 2e3d
00000250: f565 00bd ab9c 4d3b 7fee 6c3d b646 71be
00000260: cc37 3fbe 88e6 acbe 0359 c63d 238e 1b3e
00000270: 0b8f 0c3c 2003 b3be 390b 023e a781 083e
00000280: 0c18 003c a026 82be 3082 a73c 360b 7d3e
00000290: 4e91 093e 0095 1dbe bb20 9fbc 6541 413b
000002a0: 9509 64be 21cf 5a3c 9a0c 6fbc 3b89 acbe
000002b0: 7e3e a3be 7095 01bb 4fb5 6f3e cde5 83bd
000002c0: 5ce5 45be a7ef 563c a91c 9ebe 6945 80be
000002d0: 21e2 a1be 25c3 9d3e bfd4 89bd 0d80 703d
000002e0: 55b1 debc 778d 91bd d952 9abd 5d7c 6bbe
000002f0: b172 ba3e 4997 52be 8c86 eebc f54c 7c3e
00000300: 3931 623d d5b5 a13d aba1 b63a 295d 473d
00000310: 5506 a53e 9067 073d 7043 623d 5d45 89bd
00000320: 9c95 e6bb 91e8 37be 619e debd 1bde 1abe
00000330: 008a 62be 3cd1 f7bb 16dd 013d b78f be3d
00000340: ca4c 903d 76ca 1ebd 6ce3 15be c4d7 32be
00000350: cccd 71be a389 3abe 21e4 2fbe 8e82 4a3e
00000360: a994 61be 51dc 4cbd 86c6 a9bd 386f 1dbe
00000370: 9808 36be d136 8abe 78b0 87bd a291 8cbe
00000380: 671d 8a3d 5f00 10be cc9d 603d 9a82 1bbe
00000390: 4e20 f0bd 1a21 a7be 0565 85bd c887 79be
000003a0: 75d2 0bbe 1224 1fbd 96e4 c9bd 89a3 1b3e
000003b0: 385a 9abd 711c ffbc 7801 aa3d e71c 65be
000003c0: 85a7 62be 5d4f 3b3e f92a 823d f501 2fbd
000003d0: 0a28 abbc 93c3 57bd 3c26 f4bd 7cd2 31be
000003e0: 4986 0d3e f1d6 093e ee10 82be edd0 cabc
000003f0: 3cab c5bd acb3 da3d e25a b8bd d1a2 afbc
-0.049618274 -0.07574361 -0.12054745 -0.13174038 -0.15807168 0.24348255 0.06486406 0.071349196
0.043818712 0.08200082 0.16745506 -0.041120663 -0.12811504 0.18397541 0.14170776 0.090675056
0.039776005 0.09360966 0.16966763 -0.0785132 -0.065684326 -0.02357443 -0.09619985 -0.066394135
-0.030182352 -0.06851143 -0.29851282 -0.31913844 -0.010980701 -0.1256097 -0.061724175 0.12833744
0.0690581 0.17599562 -0.12678447 0.15105975 -0.1855049 -0.10929037 0.13148165 -0.18773882
0.030331004 -0.07889662 -0.059704382 -0.111609176 0.013373263 0.0799788 0.25092903 0.04042164
0.08777602 -0.19517572 -0.07754027 0.1039516 -0.1187051 0.026588077 0.00426995 -0.20993844
0.020485122 -0.04421683 0.008087608 -0.090956636 0.02031148 -0.045148067 0.04424792 -0.037658025
-0.32323605 0.09010864 -0.064908296 -0.19751744 -0.15424383 -0.1469522 0.108386055 0.2587544
-0.019236598 -0.06442805 -0.1976708 -0.19355024 -0.24796169 0.021898221 -0.1089299 -0.285358
0.043025993 0.25421783 0.23811212 -0.23738007 -0.036254674 -0.0960288 -0.1809908 0.07430975
0.03274594 0.038325075 -0.28562045 -0.14544807 0.044184826 -0.020420276 -0.011329052 -0.37887233
0.017375195 -0.18342075 -0.19129083 -0.15908262 -0.03408961 0.056641743 -0.24076611 -0.22223532
-0.23574285 -0.10170895 -0.24575537 0.2201376 -0.07137971 -0.06008892 -0.21989329 -0.0058454555
-0.0918344 -0.10944135 0.15491398 -0.15200034 0.022619905 -0.024428263 -0.36201605 -0.21623144
-0.16872697 -0.17993747 -0.02562888 -0.11218998 0.17280902 -0.024471266 0.0017143462 -0.017426362
0.011989841 -0.07283413 -0.15743956 -0.12606159 -0.22995321 -0.08645575 -0.36194903 -0.18042853
-0.2311254 -0.16942453 0.030320881 -0.32363114 -0.040480454 -0.039658237 -0.069874585 0.06690074
-0.2869135 0.4419141 -0.1516961 0.042619433 -0.031347234 0.00313739 0.057844635 -0.2356213
-0.18673629 -0.3376963 0.096849464 0.1519094 0.008579026 -0.34963322 0.12699594 0.13330708
0.007818233 -0.25420094 0.02044782 0.24711308 0.13434336 -0.1538887 -0.019424787 0.002948844
-0.2226928 0.013355047 -0.014590407 -0.3369845 -0.31883615 -0.001977291 0.23409007 -0.064403154
-0.19325775 0.013118661 -0.3088124 -0.25052956 -0.31617835 0.30812946 -0.06730031 0.05871587
-0.027184168 -0.071070604 -0.07535333 -0.2299666 0.36415628 -0.20565523 -0.029116891 0.24638732
0.055222724 0.0789601 0.0013933679 0.04867283 0.32231393 0.03305775 0.055240095 -0.06702683
-0.007036878 -0.17959811 -0.10870052 -0.15123789 -0.22122955 -0.0075627845 0.031704985 0.09304755
0.07045896 -0.0387673 -0.14637536 -0.1746512 -0.23613662 -0.18216567 -0.17176868 0.19776365
-0.22029366 -0.050014798 -0.082898185 -0.15374458 -0.17776716 -0.26994947 -0.066254556 -0.2745486
0.06743889 -0.14062642 0.054837987 -0.1518654 -0.11724912 -0.32642442 -0.065134086 -0.24368203
-0.13654502 -0.03885276 -0.098580524 0.15199102 -0.07536739 -0.031141492 0.083010614 -0.22374307
-0.22134216 0.18291993 0.06355853 -0.042726476 -0.020893116 -0.05267675 -0.11921355 -0.1736545
0.13820757 0.134609 -0.2540354 -0.024757827 -0.09651801 0.10678801 -0.090017095 -0.021439942

module.lstm.bias_hh_l0_reverse f4 [256]
00000000: e2d2 0ebc d91d 53be 92f8 b3bd 7ccd 40be
00000010: da42 d2bd 477c 793e 8569 633d 0a98 18be
00000020: f5c3 56bc 2cc0 a43c 27cf dd3d e6aa f3bb
00000030: 43c6 8fbe eb87 593e 61b8 abbc 3a6e e3bd
00000040: 8d08 a93c c155 90bd 6777 913d 94bb 4abe
00000050: 67ab 4d3d 74dd 0abe 0bec 99bd 871e 35bd
00000060: 9f38 9bbd 99ef 06be 5440 6ebe 006a eabd
00000070: 549c 66bd 2032 bf3d 282d 62b9 4a12 173e
00000080: 71c7 183d a701 ce3d 8bc0 0fbe 9eed 973d
00000090: 6e1c 693c e5b5 bf3c 2861 bb3d 1934 6fbe
000000a0: 5799 96bd 3a9c 9fbd 3f14 04be e972 13be
000000b0: 83cf 833d 8b76 a83d e186 b33c 0c41 29be
000000c0: 5e76 55ba 8f30 1e3d e8de 5fbe 52c0 2abd
000000d0: 6cfc 05be daf6 0d3e 6de0 2b3c fcbf 55be
000000e0: 06bd 6dbb 1dd3 0d3e 96b9 99bd a28d c33d
000000f0: 683d a2bb dcc9 1b3d 2052 773d d90d c9bd
00000100: 8256 5bbe f35b a3bd 78da 5cbd 8180 78be
00000110: a464 16bd b647 cbbd 1f89 143e 110c 033e
00000120: f7c6 95bd c806 9d3d 023d 59be a764 1abe
00000130: b506 7ebe 2933 0b3d f6c9 0fbd c7bc 79be
00000140: 4ad3 d2bb 9f75 053e 4498 223e 0acd 1fbe
00000150: f26a e6bb 86db 84be 1c2a 68bd cdfc 85bd
00000160: bca1 1dbe 6dbb c9bc c6ca aebe 183b 96bd
00000170: 2965 4c38 1a38 f4bc b39c 96bd 3939 96be
00000180: a6fa 2fbd f48a 54be 4718 e8bd a077 5bbe
00000190: 673c 26be c032 e53d 0809 93be d3d7 5dbe
000001a0: 912a 6bbe 87cb dcbd cf0a 90be b54b 523e
000001b0: 33c4 943b 10cc fcbc 2869 d4bd 1871 d23c
000001c0: 230a 2bbc 1312 8bbd 1917 823e 9f0f 90bd
000001d0: 3fc9 ebb9 cb3b 953d a512 a1be f7e9 01be
000001e0: 1a99 87be 78b2 89be 8d27 30bc ea4a a23c
000001f0: ca88 3e3e 55a5 1abd 6e8e 02be 3074 7fbd
00000200: f1fe b0bc 5a66 ca3c dc21 fd3c 8b0d 0cbc
00000210: db8a a0be a16e 0bbe 86ad bfbe 59b5 21be
00000220: 0abf 84be 9cc2 ffbd ba94 f53d 84d4 9cbe
00000230: 676f bc3d c42e e83d 9342 3c3d 31ec 803d
00000240: e5d4 2cbe 187e c23e de52 87be 2484 923d
00000250: 26e0 e83c de21 3dbd 8113 233e 786e f5bc
00000260: 3d0c 98be 05fe 4bbe a9c4 133e 1d5a ff3c
00000270: 5e00 0b3e 1cd3 c8be e41d 1c3e 3043 1e3d
00000280: 661d dabc 1065 c8bd 6b83 72bd 4d4e f93d
00000290: 9035 7c3b 2bb7 bfbd c91f ccbc f6f4 133e
000002a0: a425 4fbe 42a7 82bc 02dc ee3b 3946 b0be
000002b0: ba46 4fbe 4097 7dbd edc2 453e dc2a 88bd
000002c0: 459b 88be b6c3 3cbe 75b7 5abe 3694 f9bd
000002d0: b607 bcbe 4a22 413e 5631 753d 1a93 393e
000002e0: d99d 01be 633e 67be 9b2c 1ebc e94c 22be
000002f0: ef1e 8e3e 54d6 34be 8893 a93d 59fe 9f3e
00000300: 2b94 cebd 1691 663e 3ce5 b7bd 34f1 36be
00000310: 3cdf a03e e9b3 283b 0baa 82bc b808 3e3d
00000320: b078 af3b e9ae acbd 2478 16be 660e 11bd
00000330: 93fc 71be f0e6 51be c3a2 3a3a 37b1 dbbd
00000340: 5f4c 333d 5aaa 75bd 80ea 113d cba3 80be
00000350: d5f7 53be c29e 80bd 7933 e6bd d172 183e
00000360: d8c5 5e3b 364a 91bd f041 2ebd 43bd ecbd
00000370: 73b9 47be 0378 04be 855f d2bb 9350 8dbe
00000380: f325 133c 6630 97be a54f 90bd 60b9 4fbc
00000390: 11fc 40be 4366 efbd a74b d3bd 981a 90be
000003a0: a4ad 62bd c50c 27bd 5a79 e8bc 7d8f d73b
000003b0: 8fb9 1ebd 6301 5ebc f578 063e 1e46 d6be
000003c0: 85b5 57be 140e 503e dd6f 573d 9cac d83d
000003d0: 20d3 5bbd 5195 853d 473a 64bd a206 c4bd
000003e0: b3e4 843d e2be 953d 5584 7abe 5e68 1e3d
000003f0: 2047 e9bb 9786 babd 6b7e 7dbe 903c da3b
-0.008717271 -0.20616855 -0.087876454 -0.18828386 -0.10266657 0.24363814 0.055520553 -0.14901748
-0.013108243 0.020111166 0.10830527 -0.007436144 -0.2808095 0.21243255 -0.020961942 -0.111050084
0.02063396 -0.07047606 0.07102852 -0.19798118 0.05021229 -0.1356104 -0.07515725 -0.044218566
-0.07579159 -0.13177337 -0.23266727 -0.11445999 -0.05630143 0.093357325 -0.00021569862 0.1475307
0.037299577 0.10058909 -0.14038293 0.07418369 0.01422797 0.023402164 0.091493905 -0.23359717
-0.07353466 -0.0779347 -0.12898348 -0.14399303 0.06436064 0.08225735 0.021914901 -0.1652872
-0.0008142943 0.038620528 -0.21862376 -0.041687317 -0.13084573 0.13863698 0.010490519 -0.20874017
-0.0036275997 0.13850065 -0.07506101 0.09548499 -0.004951168 0.038034305 0.060381055 -0.09817094
-0.21419719 -0.07976522 -0.053919286 -0.2426777 -0.036717072 -0.09925787 0.14505433 0.12797572
-0.0731334 0.07667309 -0.21214679 -0.15077458 -0.24807246 0.033984337 -0.035104714 -0.24388419
-0.006433879 0.1303315 0.15878397 -0.1560556 -0.007031792 -0.25948733 -0.056680784 -0.065423585
-0.15393728 -0.024625504 -0.3413908 -0.0733549 4.8731603e-05 -0.029811908 -0.07354107 -0.29340532
-0.042963646 -0.20756131 -0.113327555 -0.21432352 -0.16233979 0.111913204 -0.28717828 -0.21664362
-0.22965457 -0.10781007 -0.28133246 0.20536692 0.0045399903 -0.030859023 -0.103716195 0.025688693
-0.0104394285 -0.06790557 0.25408247 -0.070342295 -0.00044972633 0.07286795 -0.31459537 -0.12686907
-0.26483995 -0.26893973 -0.010751617 0.019811112 0.18606868 -0.03775533 -0.12749645 -0.062366664
-0.02160594 0.024707008 0.030899934 -0.008548151 -0.31355938 -0.1361642 -0.37437075 -0.15791835
-0.25927 -0.12488291 0.11991258 -0.30630887 0.09200936 0.11337045 0.045961928 0.0629505
-0.16878088 0.37986827 -0.2643041 0.0715411 0.028427195 -0.046174876 0.15925409 -0.029959902
-0.29696837 -0.1992112 0.14430489 0.031170899 0.13574359 -0.39223564 0.15245777 0.038638294
-0.026625346 -0.09784901 -0.05920736 0.12173138 0.0038484074 -0.093611084 -0.0249175 0.14448914
-0.20229203 -0.015948895 0.0072894106 -0.34428576 -0.20241824 -0.06191182 0.1931264 -0.066488
-0.2668096 -0.18434033 -0.21359046 -0.12186472 -0.36724633 0.18860736 0.059861504 0.18122521
-0.1265787 -0.22582392 -0.009654189 -0.15849651 0.27757975 -0.17659885 0.082800925 0.3124874
-0.100868545 0.22516283 -0.0897927 -0.17865449 0.31420314 0.0025742 -0.015950223 0.046395034
0.0053549632 -0.08431799 -0.14694268 -0.035414122 -0.23631506 -0.20498252 0.00071195903 -0.107271604
0.043774005 -0.059976913 0.035624027 -0.25124964 -0.20700009 -0.06280281 -0.112402864 0.14887549
0.0033992436 -0.07094233 -0.04254335 -0.11559536 -0.19504337 -0.12936406 -0.006420078 -0.27600536
0.008981216 -0.29529113 -0.07046441 -0.012678474 -0.18846156 -0.11689427 -0.10317164 -0.2814529
-0.055341378 -0.040783662 -0.028378177 0.0065783844 -0.03875118 -0.013550135 0.13132079 -0.4185037
-0.21065338 0.2031787 0.052596916 0.105797976 -0.05366814 0.065226205 -0.05571964 -0.095715776
0.064889334 0.07311799 -0.24464543 0.03867375 -0.0071190745 -0.09107702 -0.24755256 0.0066600516
